KNet/model_Ratio_0---R_-3---T_80---unsupervised_True.pt (torch, 459357 bytes, 28 tensors)

weight f4 [320, 4]
0.44966426 0.03574085 -0.15577658 -0.0434932 0.1767032 -0.35252976 -0.24573681 -0.26980573
-0.41661844 -0.08435448 -0.42878017 0.43304878 -0.2359453 0.04145114 0.0074843233 0.15019026
-0.17662507 0.4234211 -0.22923985 0.029053649 -0.35410133 -0.062464636 -0.13143423 -0.0736686
0.460704 0.4102761 0.2510343 -0.39302838 0.32698026 0.056664698 -0.25172058 -0.014690512
0.4911995 -0.2786037 -0.34172297 -0.036592722 0.4928201 0.044655517 0.19143113 -0.49444366
-0.23000672 -0.42483792 -0.009110555 -0.4664685 0.18333827 -0.4093456 0.20880683 0.074265376
-0.4839029 -0.4006213 0.108698875 -0.43136442 0.10905955 -0.29161653 -0.23926947 -0.35969725
0.20083223 -0.5035917 0.60673314 0.3313925 -0.16730441 0.33562082 0.15169653 -0.05040522
-0.100067295 0.28742027 0.38707915 -0.050534293 -0.354574 0.4352308 -0.14890131 -0.3477264
0.014949533 -0.1713494 -0.47314477 0.42212015 -0.18208164 -0.05791955 0.41954413 0.52877164
-0.050822675 -0.4464243 -0.44861993 -0.020507034 -0.3751402 -0.37143934 0.3578555 -0.24269414
0.2114839 0.48580405 -0.18893996 0.21039091 0.31038147 -0.22177227 -0.33063725 0.4360332
0.50948644 -0.5410674 -0.41427281 -0.40243402 0.49422085 -0.399115 -0.27595276 -0.37851682
0.53621674 0.03998123 -0.3831771 -0.2556853 0.061368745 0.30049333 -0.010080585 -0.16634199
0.4718325 0.5617638 -0.43787104 0.19249272 -0.027770588 0.11195398 -0.29837748 -0.46268612
0.36804506 0.48920968 -0.3163273 0.48280412 0.35687435 -0.42715833 0.12139841 -0.4734986
0.40015206 0.17876033 0.33796796 -0.11680546 0.04905951 0.33921978 -0.48853567 -0.53840256
-0.5184028 -0.101629436 0.09163425 -0.24971917 0.13490474 -0.0048279483 -0.40961295 -0.33249417
0.15057051 0.2298778 0.05781922 -0.5176335 -0.45604897 0.10917717 0.36376286 0.021132287
-0.23872189 0.51486325 -0.4970407 -0.1966431 0.01716216 -0.4116732 -0.12294411 -0.39067847
0.18666455 -0.37246338 -0.24474297 -0.5521015 -0.346022 -0.07283049 0.44574308 0.41535118
0.21381266 -0.44393986 0.43227392 -0.09776519 0.4272473 -0.37447566 -0.0113237975 0.038958147
0.07459146 0.44737056 -0.57673746 0.45730454 0.5027492 -0.35090643 0.025690006 -0.45770937
0.25249422 0.14127189 -0.09209043 0.47686318 0.38804805 0.48567873 0.3082608 -0.31241924
-0.24271299 -0.027751055 0.28702974 -0.008519443 0.50091124 0.3982622 0.17848703 -0.070028506
0.09687248 0.04674566 0.09727404 -0.06517995 0.23050329 -0.038704284 0.42906925 -0.06379724
-0.101363115 0.17583117 -0.5081469 0.24737968 0.24664 -0.07530896 0.31955728 -0.3771795
-0.44110107 0.2555324 -0.373638 0.3522719 -0.35838264 -0.26024544 -0.061968304 -0.3858576
-0.036881413 0.024633616 0.29777473 -0.35022393 0.111891076 0.057978276 -0.18787529 -0.32718572
-0.48145792 -0.49735218 0.24451981 -0.03309098 -0.05325373 0.42962727 -0.08249705 0.073278874
0.07744818 -0.32898837 0.38362116 -0.43663368 -0.44101444 0.18867518 0.14497513 -0.46787244
0.39815924 -0.089936964 -0.37577465 -0.55818313 -0.29228872 -0.17269193 0.48184973 0.41313165
00000000: 653a e63e ff64 123d e583 1fbe ed25 32bd
00000010: aff1 343e c87e b4be 6ea2 7bbe fa23 8abe
00000020: 034f d5be 0bc2 acbd 1389 dbbe 92b8 dd3e
00000030: a59b 71be acc8 293d 0e3f f53b 7acb 193e
00000040: 34dd 34be a7ca d83e dabd 6abe eb01 ee3c
00000050: c54c b5be ebda 7fbd b296 06be 90df 96bd
00000060: 65e1 eb3e b50f d23e 9187 803e 043b c9be
00000070: f569 a73e 3e19 683d 85e1 80be 79b0 70bc
00000080: 807e fb3e 25a5 8ebe 50f6 aebe 40e2 15bd
00000090: eb52 fc3e b4e8 363d 8606 443e b827 fdbe
000000a0: e286 6bbe 5b84 d9be 7044 15bc f6d4 eebe
000000b0: 07bd 3b3e bf95 d1be 75d1 553e 7218 983d
000000c0: 1fc2 f7be 3c1e cdbe 849d de3d ccdb dcbe
000000d0: 9d5a df3d c34e 95be 0e03 75be 3d2a b8be
000000e0: f7a6 4d3e 63eb 00bf dd52 1b3f 47ac a93e
000000f0: d951 2bbe 7ed6 ab3e 5656 1b3e b475 4ebd
00000100: 15f0 ccbd c028 933e 3d2f c63e 0cfd 4ebd
00000110: b98a b5be 92d6 de3e 9679 18be 3209 b2be
00000120: e3ee 743c 3876 2fbe 0840 f2be 2220 d83e
00000130: 9c73 3abe 0d3d 6dbd 7dce d63e 945d 073f
00000140: 702b 50bd ba91 e4be 83b1 e5be 5efe a7bc
00000150: 6012 c0be 4c2d bebe d638 b73e d084 78be
00000160: 3c8f 583e 4fbb f83e 7a79 41be b770 573e
00000170: 52ea 9e3e 4518 63be 4949 a9be be3f df3e
00000180: b46d 023f 6583 0abf 911b d4be d50b cebe
00000190: 840a fd3e cd58 ccbe ae49 8dbe f5cc c1be
000001a0: 8045 093f 5cc3 233d ca2f c4be 2fe9 82be
000001b0: cb5d 7b3d 43da 993e 0a29 25bc 8e55 2abe
000001c0: 0894 f13e c1cf 0f3f a230 e0be d01c 453e
000001d0: 257f e3bc 2148 e53d efc4 98be 32e5 ecbe
000001e0: 6770 bc3e b179 fa3e a7f5 a1be 1a32 f73e
000001f0: 3cb8 b63e 7fb4 dabe bb9f f83d 696e f2be
00000200: bbe0 cc3e f30c 373e 230a ad3e b337 efbd
00000210: a0f2 483d 37ae ad3e 5921 fabe c0d4 09bf
00000220: 0cb6 04bf 1823 d0bd bdaa bb3d 62b6 7fbe
00000230: 7824 0a3e c433 9ebb cab8 d1be ad3c aabe
00000240: 282f 1a3e 1665 6b3e d9d3 6c3d a183 04bf
00000250: 407f e9be 4898 df3d 203f ba3e 9e1d ad3c
00000260: 8373 74be 14ce 033f 1e7c febe cf5c 49be
00000270: a897 8c3c d4c6 d2be 1fca fbbd 0207 c8be
00000280: fe24 3f3e 85b3 bebe e79d 7abe 8656 0dbf
00000290: cc29 b1be 2728 95bd 7038 e43e e9a8 d43e
000002a0: b5f1 5a3e 164c e3be 0253 dd3e 1e39 c8bd
000002b0: 28c0 da3e 46bb bfbe 7387 39bc 9492 1f3d
000002c0: 68c3 983d c10d e53e 11a5 13bf d223 ea3e
000002d0: 2cb4 003f 02aa b3be d973 d23c e258 eabe
000002e0: ec46 813e 94a9 103e e899 bcbd 6927 f43e
000002f0: 3cae c63e e2aa f83e 5cd4 9d3e 6af5 9fbe
00000300: c189 78be 2e56 e3bc 90f5 923e 2295 0bbc
00000310: b83b 003f 06e9 cb3e 4ec5 363e 1b6b 8fbd
00000320: 1465 c63d 6178 3f3d 9d37 c73d 117d 85bd
00000330: 0e09 6c3e 6288 1ebd f7ae db3e 21a8 82bd
00000340: 7797 cfbd 160d 343e ea15 02bf 1951 7d3e
00000350: 328f 7c3e 963b 9abd 039d a33e ac1d c1be
00000360: 00d8 e1be 25d5 823e 7b4d bfbe fc5c b43e
00000370: ee7d b7be e43e 85be 7ad2 7dbd 218f c5be
00000380: f710 17bd 70cc c93c ee75 983e 8d50 b3be
00000390: 2627 e53d a17a 6d3d 6162 40be e384 a7be
000003a0: a781 f6be f2a4 febe 6763 7a3e 688a 07bd
000003b0: 9520 5abd 1bf8 db3e 37f4 a8bd 3c13 963d
000003c0: 279d 9e3d 2a71 a8be fe69 c43e 738e dfbe
000003d0: a5cc e1be 1134 413e 5c74 143e fa8c efbe
000003e0: 87db cb3e df30 b8bd 8965 c0be 17e5 0ebf
000003f0: dea6 95be 27d6 30be 02b5 f63e fe85 d33e

bias f4 [320]
0.14586987 -0.42129073 0.11111789 0.14613633 0.2892478 0.0587125 0.20541039 -0.45081145
0.33387086 -0.33943382 -0.10059634 0.3271827 0.110866934 -0.37362376 0.45994604 0.15210904
0.4472933 0.13704218 -0.23294081 -0.35929286 0.24981216 0.356808 0.36278725 0.20333491
-0.06338471 -0.09616805 -0.2910341 -0.101564035 0.38538378 -0.21938139 0.4319318 0.25830483
-0.47510123 0.08376973 0.25047398 0.39692825 0.01319284 0.089385636 0.11790152 0.18833503
0.23536506 0.28439248 -0.24470627 0.11199201 0.034968134 -0.26857132 -0.022832952 0.3623119
-0.22979406 0.119861074 0.09828165 -0.28792155 -0.35752562 -0.4589865 -0.108646475 0.25058642
0.46604717 -0.06405859 -0.47519073 -0.017589185 0.45486224 -0.3495612 -0.12540907 0.051572286
-0.29593554 -0.12248518 0.12186769 -0.3348781 0.08019242 -0.3489968 0.4126305 0.4717179
0.2844125 0.26096526 0.46526602 -0.11279424 -0.3464556 0.17660457 -0.4771219 -0.3650029
0.24525812 0.13078144 0.124717854 0.4239344 0.46889004 -0.17985258 0.10734173 0.37924182
-0.00096698187 0.20355637 0.2614216 0.3002047 -0.28934556 0.14954427 0.0899725 0.3019966
0.07353462 -0.42264056 -0.058035012 0.41795367 -0.2925525 0.30963445 -0.08708444 0.11125912
0.18673262 0.49047703 0.31193244 0.09271855 -0.43078738 0.19050267 0.45315495 -0.41904956
0.44077244 -0.2955952 -0.0048695942 0.23050947 -0.34429884 -0.15638639 0.47223523 -0.27351567
0.42474422 0.16530445 -0.009931389 0.28430337 0.37077618 0.1428594 0.33336428 -0.15604745
0.061027084 -0.23272614 -0.39356127 0.12918663 -0.06105127 -0.029501734 0.25499168 -0.1333652
-0.15981607 0.029183373 0.06488614 -0.4082745 0.3984969 0.20130882 -0.0651993 -0.072944984
-0.004454465 0.07177941 0.09280251 -0.047211267 -0.34144893 0.12971689 0.13463207 0.049934305
-0.08888122 0.24491185 0.2708983 -0.04053102 -0.05166468 -0.06392099 -0.16937445 -0.4251202
-0.15171589 -0.25316983 -0.087279014 -0.10073229 -0.10919317 -0.16457541 0.12508033 -0.07996716
-0.03713336 -0.36458746 0.034736294 0.47408748 0.1905147 -0.11685958 0.28185847 0.09313285
-0.11878644 -0.005217858 -0.29492468 0.3506425 0.3927934 0.26236588 -0.18115443 0.08534204
0.18377094 0.07469808 -0.28585762 0.3191501 -0.40043992 -0.054442775 -0.14741947 -0.028470356
-0.14090484 0.3583503 -0.29967576 -0.035565104 0.28048325 -0.3274238 0.18373017 0.20612775
-0.06053863 0.2518613 0.076348074 -0.047329046 -0.18776792 0.00274316 0.008274381 0.24562919
-0.022455478 0.04054126 -0.371561 0.008199335 -0.38529968 0.3893138 0.17232947 -0.23915935
-0.033212934 -0.12734026 -0.11969514 0.054883584 0.2602975 -0.13627532 -0.1400223 -0.29857323
-0.113174014 0.24338824 0.4175101 0.15977076 -0.12759946 0.3699129 -0.14819837 -0.33987275
0.07096354 0.21113233 -0.16239338 -0.08140442 0.27557707 0.1391085 0.39732528 0.050954822
-0.33327878 -0.10665903 0.237532 -0.3048381 0.026970258 -0.35266724 -0.0019219574 -0.07630716
-0.21807894 0.35754725 -0.13041349 -0.44542894 0.23169866 0.19463223 -0.025193935 0.15574728
00000000: e95e 153e 6bb3 d7be c791 e33d c3a4 153e
00000010: 4a18 943e 857c 703d 1a57 523e c2d0 e6be
00000020: 1ff1 aa3e 45ca adbe 7405 cebd 7e84 a73e
00000030: 340e e33d 9d4b bfbe 0c7e eb3e 79c2 1b3e
00000040: a103 e53e c954 0c3e 0988 6ebe 3cf5 b7be
00000050: c2ce 7f3e 8aaf b63e 40bf b93e 0737 503e
00000060: d8cf 81bd c1f3 c4bd 6c02 95be ce00 d0bd
00000070: 0651 c53e 84a5 60be 2a26 dd3e 8840 843e
00000080: 7840 f3be 778f ab3d 203e 803e 2e3a cb3e
00000090: c826 583c d10f b73d 5a76 f13d e6da 403e
000000a0: 8a03 713e e49b 913e 4894 7abe 115c e53d
000000b0: bf3a 0f3d 2e82 89be 2c0c bbbc f280 b93e
000000c0: 224f 6bbe b979 f53d e447 c93d 746a 93be
000000d0: 990d b7be 4700 ebbe 0b82 debd dd4c 803e
000000e0: bc9d ee3e 2631 83bd 334c f3be 3217 90bc
000000f0: b4e3 e83e b0f9 b2be 3c6b 00be 763d 533d
00000100: dd84 97be 83d9 fabd c495 f93d 2475 abbe
00000110: ec3b a43d b5af b2be 4e44 d33e 0285 f13e
00000120: 849e 913e 3d9d 853e 5937 ee3e ab00 e7bd
00000130: a162 b1be d4d7 343e 5249 f4be a9e1 babe
00000140: f224 7b3e 92eb 053e 136c ff3d ee0d d93e
00000150: 5b12 f03e 462b 38be fbd5 db3d fc2b c23e
00000160: 0e7d 7dba 1571 503e 0dd9 853e 6eb4 993e
00000170: 1a25 94be 2222 193e 8143 b83d 4c9f 9a3e
00000180: 5299 963d 5864 d8be 1fb6 6dbd 06fe d53e
00000190: 71c9 95be 6888 9e3e 5459 b2bd d2db e33d
000001a0: d636 3f3e ce1f fb3e 9cb5 9f3e 39e3 bd3d
000001b0: 2a90 dcbe 2213 433e ed03 e83e aa8d d6be
000001c0: edac e13e 4158 97be 1e91 9fbb ad0a 6c3e
000001d0: f047 b0be c123 20be d1c8 f13e 3f0a 8cbe
000001e0: 1378 d93e 9245 293e 44b7 22bc 3690 913e
000001f0: 60d6 bd3e bc49 123e b9ae aa3e e7ca 1fbe
00000200: 89f7 793d c34f 6ebe dd80 c9be 8049 043e
00000210: e610 7abd 9fad f1bc 458e 823e e390 08be
00000220: d3a6 23be f811 ef3c 06e3 843d 5b09 d1be
00000230: c907 cc3e e623 4e3e 3687 85bd 2e64 95bd
00000240: c3f6 91bb 1501 933d 3e0f be3d 9a60 41bd
00000250: 65d2 aebe 81d4 043e fddc 093e ea87 4c3d
00000260: 5b07 b6bd 2cca 7a3e 2fb3 8a3e db03 26bd
00000270: 589e 53bd 02e9 82bd 7f70 2dbe 5ba9 d9be
00000280: 695b 1bbe 7a9f 81be 57bf b2bd bb4c cebd
00000290: aba0 dfbd 7586 28be 0f15 003e d3c5 a3bd
000002a0: 2619 18bd 35ab babe a547 0e3d 98bb f23e
000002b0: 4916 433e 1354 efbd c14f 903e 70bc be3d
000002c0: 4e46 f3bd 91fa aabb 5e00 97be 6a87 b33e
000002d0: 371c c93e d254 863e 8c80 39be cfc7 ae3d
000002e0: 732e 3c3e 4ffb 983d ee5b 92be a467 a33e
000002f0: 7606 cdbe 63ff 5ebd 21f5 16be aa3a e9bc
00000300: 5c49 10be b179 b73e 1a6f 99be b7ac 11bd
00000310: 809b 8f3e 18a4 a7be c323 3c3e 2713 533e
00000320: 5bf7 77bd f7f3 803e 615c 9c3d 1adc 41bd
00000330: 3c46 40be 96c6 333b 4591 073c 3886 7b3e
00000340: 8df4 b7bc 980e 263d 3e3d bebe 8156 063c
00000350: 0046 c5be 2354 c73e 2377 303e 30e6 74be
00000360: 490a 08bd 7c65 02be ba22 f5bd 9ccd 603d
00000370: b745 853e c28b 0bbe 0162 0fbe 97de 98be
00000380: c7c7 e7bd c43a 793e e2c3 d53e f29a 233e
00000390: 6fa9 02be 3965 bd3e 50c1 17be cd03 aebe
000003a0: 5555 913d 1333 583e 734a 26be 5cb7 a6bd
000003b0: 7018 8d3e 7572 0e3e 386e cb3e 01b6 503d
000003c0: 84a3 aabe 0d70 dabd 973b 733e bd13 9cbe
000003d0: bbf0 dc3c cd90 b4be 30ea fbba ee46 9cbd
000003e0: 1650 5fbe 6f10 b73e 1d8b 05be 430f e4be
000003f0: 6a42 6d3e ac4d 473e 8363 cebc 377c 1f3e

weight_ih_l0 f4 [240, 320]
-0.088487126 -0.04722823 -0.084387526 -0.0905762 -0.0029100892 0.049901675 -0.052607097 0.15883365
-0.10606548 0.041256256 0.089074776 0.13140923 -0.024204737 -0.017293623 0.09401692 -0.06326019
0.03935549 -0.013765212 -0.053468753 -0.06284424 -0.10189427 0.014855608 0.023662155 -0.035930596
-0.06696488 -0.08383969 -0.06315198 -0.035872847 0.104813755 -0.082943864 -0.017699176 -0.057695758
-0.09998422 -0.04001527 0.06797368 -0.054004077 -0.065301605 -0.0049331877 -0.04115472 0.069721125
0.06504459 0.053338576 -0.028450157 -0.05080515 -0.037946332 -0.13914146 0.14183155 0.019285582
-0.082885176 0.099437855 0.12232781 0.10467382 0.0040713623 -0.09040685 0.0058578425 0.11602373
0.09281895 -0.0339022 -0.017178101 0.11304361 0.085314676 -0.02264612 0.029085692 0.023334315
0.03867956 -0.029620808 0.016814627 0.03084343 -0.053046037 -0.11276379 -0.015509508 -0.023280693
-0.111178674 0.03372121 0.05178453 0.017294304 -0.066849336 0.13421573 -0.123856746 0.06584117
-0.046472855 -0.034226116 -0.05601823 -0.06929532 0.010421993 -0.007846769 -0.0640526 -0.056375805
-0.12554215 -0.0163528 0.013133904 0.047158815 -0.06346795 -0.008568464 0.111673035 0.090631634
-0.11666682 0.18353057 -0.0708014 -0.008590232 -0.062328834 -0.024814876 0.026104204 0.094636574
-0.13844436 -0.06070624 -0.026157577 0.046279922 -0.010597867 -0.114088945 0.005028431 0.007333738
-0.11025942 -0.092373766 0.10809743 -0.064441875 -0.02400755 0.05199285 0.02946489 -0.107184455
-0.096104145 0.03831975 0.06402144 0.070929006 0.012240931 -0.047327034 0.11340765 0.030147787
-0.019970356 -0.042914845 0.032445304 -0.10811394 -0.12851985 -0.06508706 0.028242666 -0.057057872
-0.11063332 0.07360469 -0.08340644 0.048065543 0.058617443 -0.056142345 0.07404969 -0.14842923
-0.015129969 0.020023083 0.04800135 0.010448803 0.0070104636 0.059613377 0.107556306 -0.011235963
0.0378183 0.09938215 0.07190883 0.094690576 0.04372354 -0.023225132 0.042982906 0.076913655
0.10562326 -0.0050306623 0.057556715 0.032380376 -0.014379833 -0.12924099 -0.040107857 0.08156528
-0.076124385 0.06251394 0.079576276 -0.03396657 0.0129097905 -0.006867556 0.07899718 0.014008811
-0.04410484 0.11231375 0.15160221 -0.08193619 -0.00072682125 0.03156593 -0.13141185 0.03587875
-0.032834765 -0.02079746 -0.043139186 -0.103238486 -0.021350788 -0.11782419 -0.120076574 -0.0081267515
-0.015031686 0.0031287062 -0.05157346 -0.062005624 -0.08313074 -0.084664404 0.09661198 0.08910661
0.009837799 -0.07242778 0.07424979 0.06951001 0.042983595 -0.083773986 0.04210018 -0.050105214
0.0057579437 0.030561205 0.020927427 -0.013001672 -0.11256924 -0.020394886 0.010107962 0.070891015
-0.07558943 -0.08067243 -0.05727609 -0.030531697 0.11091781 0.019398613 -0.07777685 0.1493289
-0.06409071 0.07211286 -0.039389174 -0.05437733 0.07883656 -0.057403825 0.007607907 0.030638505
0.016753972 0.024667623 0.035886563 -0.071964115 0.060533006 0.10441436 0.08223098 0.017138755
-0.08025451 -0.13100518 0.067057446 0.059819296 0.035261754 0.15674067 -0.035982486 -0.04775113
-0.089096256 -0.038928617 0.066815265 0.029186958 0.050966457 -0.03966097 -0.07813045 -0.008260268
00000000: bd38 b5bd 6372 41bd 5ed3 acbd 0480 b9bd
00000010: 32b7 3ebb b365 4c3d 8a7a 57bd 4aa5 223e
00000020: dc38 d9bd 52fc 283d d66c b63d 2490 063e
00000030: 0349 c6bc 5bab 8dbc f18b c03d 8f8e 81bd
00000040: 3933 213d 7c87 61bc 0d02 5bbd 7bb4 80bd
00000050: f1ad d0bd f064 733c 23d7 c13c f62b 13bd
00000060: e224 89bd 25b4 abbd d355 81bd 68ef 12bd
00000070: 98a8 d63d 79de a9bd ddfd 90bc 6352 6cbd
00000080: 87c4 ccbd 0de7 23bd c935 8b3d 6133 5dbd
00000090: d9bc 85bd 94a6 a1bb da91 28bd f3c9 8e3d
000000a0: 1936 853d 8d79 5a3d 4e10 e9bc 1019 50bd
000000b0: 9d6d 1bbd 197b 0ebe 4a3c 113e ccfc 9d3c
000000c0: b4bf a9bd 13a6 cb3d 0187 fa3d 3a5f d63d
000000d0: 1069 853b 3a27 b9bd 25f3 bf3b d99d ed3d
000000e0: dd17 be3d 09dd 0abd 17b9 8cbc 6883 e73d
000000f0: 76b9 ae3d 5b84 b9bc 1e45 ee3c 9b27 bf3c
00000100: 756e 1e3d 56a7 f2bc d4be 893c 5cab fc3c
00000110: cd46 59bd b4f0 e6bd 971b 7ebc 27b7 bebc
00000120: a5b1 e3bd 401f 0a3d 041c 543d c9ac 8d3c
00000130: 4ee8 88bd d96f 093e 9ba8 fdbd bcd7 863d
00000140: 525a 3ebd af30 0cbd 5f73 65bd b4ea 8dbd
00000150: 02c1 2a3c bc8f 00bc 022e 83bd 51ea 66bd
00000160: 1f8e 00be 4ff6 85bc 962f 573c 9a29 413d
00000170: 7cfb 81bd be62 0cbc d5b4 e43d 149d b93d
00000180: 04ef eebd 70ef 3b3e 5300 91bd 0bbe 0cbc
00000190: 854c 7fbd 9148 cbbc 7cd8 d53c d2d0 c13d
000001a0: 5cc4 0dbe 1ba7 78bd 6a48 d6bc 0490 3d3d
000001b0: ada2 2dbc 77a7 e9bd 89c5 a43b da4f f03b
000001c0: b1cf e1bd 752e bdbd 2f62 dd3d 1afa 83bd
000001d0: 7bab c4bc 74f6 543d 5a60 f13c 8683 dbbd
000001e0: 40d2 c4bd 2cf5 1c3d ac1d 833d 3a43 913d
000001f0: 308e 483c fed9 41bd 4542 e83d 7ef8 f63c
00000200: df98 a3bc 7ac7 2fbd 5ee5 043d d76a ddbd
00000210: b59a 03be 5d4c 85bd 2a5d e73c 84b5 69bd
00000220: b993 e2bd 0ebe 963d ffd0 aabd 60e0 443d
00000230: d818 703d 84f5 65bd 5da7 973d d5fd 17be
00000240: b1e3 77bc 7307 a43c 109d 443d 7531 2b3c
00000250: 08b8 e53b 282d 743d 7b46 dc3d 0b17 38bc
00000260: 5de7 1a3d de88 cb3d f044 933d 22ed c13d
00000270: 7417 333d a242 bebc d80e 303d e884 9d3d
00000280: 0251 d83d 41d8 a4bb 97c0 6b3d 49a1 043d
00000290: 6499 6bbc c057 04be 2348 24bd b30b a73d
000002a0: 1ae7 9bbd 4f07 803d e3f8 a23d 8820 0bbd
000002b0: 9683 533c 3c09 e1bb 46c9 a13d 3685 653c
000002c0: 47a7 34bd c004 e63d 9c3d 1b3e 29ce a7bd
000002d0: 2688 3eba 474b 013d d490 06be 99f5 123d
000002e0: bf7d 06bd 6f5f aabc b7b2 30bd b36e d3bd
000002f0: d9e7 aebc cf4d f1bd b5ea f5bd 1126 05bc
00000300: 7647 76bc fb0a 4d3b b13e 53bd 9cf9 7dbd
00000310: 7340 aabd 8864 adbd 80dc c53d 877d b63d
00000320: b82e 213c 0455 94bd 4610 983d 445b 8e3d
00000330: 910f 303d b291 abbd 3d71 2c3d 203b 4dbd
00000340: 22ad bc3b 7e5b fa3c ff6f ab3c f704 55bc
00000350: b48a e6bd 2d13 a7bc de9b 253c 4f2f 913d
00000360: a2ce 9abd 9637 a5bd 559a 6abd 9c1d fabc
00000370: e028 e33d d7e9 9e3c 7849 9fbd ade9 183e
00000380: fd41 83bd e8af 933d 8b56 21bd c3ba 5ebd
00000390: 1075 a13d 4620 6bbd c04b f93b 9afd fa3c
000003a0: a03f 893c c113 ca3c cafd 123d ec61 93bd
000003b0: 75f1 773d 32d7 d53d b768 a83d 9366 8c3c
000003c0: 7a5c a4bd 3926 06be 6a55 893d 1405 753d
000003d0: a16e 103d a080 203e 5f62 13bd b096 43bd
000003e0: 1978 b6bd 9d73 1fbd 71d6 883d 7d19 ef3c
000003f0: 34c2 503d 8b73 22bd db02 a0bd 1356 07bc

weight_hh_l0 f4 [240, 80]
-0.05561277 0.14292324 -0.033265483 0.0307854 -0.054276608 -0.040766403 0.040862463 0.08335563
-0.09652948 -0.09577775 0.06551711 0.000678292 0.01988552 -0.008524304 0.07264865 -0.020068452
-0.0073183533 -0.005026673 0.025873683 0.049261663 0.10097232 0.095950425 -0.014114075 -0.022926295
-0.056087226 0.05656077 -0.064320505 -0.04696694 -0.054294255 0.015265952 -0.08908468 -0.042032193
-0.001215241 -0.029128127 -0.082862355 0.03184652 0.025680449 -0.069376096 0.1080689 -0.028512543
-0.14622279 -0.02543222 -0.087758385 0.080724224 -0.028885553 0.07928933 0.07164404 -0.1618171
0.01602407 0.010560586 -0.12520254 0.026957445 0.03324749 -0.054469705 0.122431755 0.038519498
0.020499537 -0.10317652 -0.09792086 -0.056905333 0.0067622233 0.06106532 0.026938286 0.062020104
-0.12938279 0.050523702 -0.015868321 -0.10733189 -0.028652791 0.08451656 -0.08122684 0.123283856
-0.050866395 -0.084612966 -0.06095951 0.014589508 -3.7213737e-05 -0.095985055 0.047888406 0.01919817
-0.04745978 0.022818401 -0.04811907 0.05480061 0.14265078 0.01177786 0.16441137 0.0005373085
-0.012226483 -0.0511622 -0.17183933 0.087710485 0.01732802 0.04797368 0.18649438 -0.000107684114
-0.19652456 0.023222173 0.0038401906 0.00046067737 -0.038477924 -0.02965276 0.037974924 -0.040171
0.024815446 0.0030704644 -0.0106093995 -0.16538773 -0.014118437 0.12224684 -0.012496736 0.0815636
-0.08521177 -0.08592196 0.024626376 0.093178645 -0.12803937 -0.09447191 -0.0034645873 0.01324846
0.025765644 -0.032857444 0.14654964 -0.047972854 0.0803537 0.10313429 0.124121085 0.020013263
-0.07134575 -0.051256448 -0.10812971 -0.028788146 -0.05379738 -0.08120929 -0.15445407 0.13543493
-0.05617642 -0.032368332 0.115481384 0.09599597 0.02478161 -0.14623809 0.041881666 -0.01746875
-0.027185114 0.053610805 -0.035914943 -0.055590063 0.0114900945 -0.090307966 -0.06649378 -0.058837324
-0.09872611 -0.0011665428 -0.061001413 -0.1151983 0.019060204 -0.03580164 0.05427085 -0.027721394
-0.14340979 -0.012261062 -0.04320574 -0.04893912 -0.040972184 0.04576832 0.07789871 -0.020026132
0.027771953 -0.010408381 -0.029192135 -0.006790073 -0.087382786 0.11884003 -0.04456737 0.011879909
0.04723065 0.09644462 -0.04973492 -0.08747469 0.011545609 0.07033924 0.056155145 0.14846838
0.16264427 0.032458168 0.04932161 -0.026653368 0.0035850157 -0.14284778 0.00485718 0.122478954
-0.064927034 0.1064776 -0.057578523 -0.03738083 0.05704335 0.028022151 0.053938057 0.057318904
-0.087050356 0.045007043 0.025474569 0.04007051 0.027683875 -0.0072718356 -0.07274521 0.14177677
-0.02084914 -0.013629748 -0.026017204 -0.1387254 -0.0970734 -0.05240069 0.14734763 -0.021366749
-0.115278974 -0.06941837 0.039953534 0.09103848 -0.12040697 -0.042892475 -0.0011764803 0.034997884
-0.0779873 0.0685571 -0.12092065 0.115578584 -0.035497386 -0.04616955 0.05169866 0.023483483
0.031857215 0.1060403 0.103172034 -0.07180061 -0.060597226 0.12094565 0.14843896 0.09257487
-0.08692714 -0.00208377 0.031308312 0.10012226 0.028934171 0.046332847 -0.048661422 -0.03776377
-0.03641214 -0.05958021 0.1299513 -0.038809422 -0.0046047885 -0.0308015 -0.01565657 0.0042093
00000000: 37ca 63bd 785a 123e 6341 08bd aa31 fc3c
00000010: 2651 5ebd acfa 26bd 665f 273d 5bb6 aa3d
00000020: 3fb1 c5bd 2027 c4bd d62d 863d 68cf 313a
00000030: f5e6 a23c 86a9 0bbc d1c8 943d 9866 a4bc
00000040: ccce efbb cab6 a4bb 0cf5 d33c 99c6 493d
00000050: 93ca ce3d a881 c43d b93e 67bc edcf bbbc
00000060: b8bb 65bd 44ac 673d 78ba 83bd 6860 40bd
00000070: a763 5ebd 0b1e 7a3c 0772 b6bd f329 2cbd
00000080: b948 9fba 1c9e eebc bdb3 a9bd 7f71 023d
00000090: ce5f d23c 0e15 8ebd 3a53 dd3d 2393 e9bc
000000a0: 6dbb 15be 3b57 d0bc abba b3bd be52 a53d
000000b0: 65a1 ecbc 7262 a23d 1cba 923d 62b3 25be
000000c0: e944 833c 4f06 2d3c 1835 00be dcd5 dc3c
000000d0: 852e 083d a01b 5fbd 80bd fa3d 9fc6 1d3d
000000e0: a5ee a73c 364e d3bd bb8a c8bd 9115 69bd
000000f0: a495 dd3b a11f 7a3d aead dc3c cb08 7e3d
00000100: ec7c 04be f1f1 4e3d 48fe 81bc d2d0 dbbd
00000110: 42b9 eabc 0517 ad3d 425a a6bd 3f7c fc3d
00000120: 4859 50bd 9049 adbd aeb0 79bd d508 6f3c
00000130: f215 1cb8 d093 c4bd a226 443d 7b45 9d3c
00000140: 3065 42bd a8ed ba3c 8018 45bd 9b76 603d
00000150: 0c13 123e edf7 403c 745b 283e 2ada 0c3a
00000160: 9651 48bc 748f 51bd a6f6 2fbe 8ea1 b33d
00000170: 7ef3 8d3c 0d80 443d 62f8 3e3e 78d4 e1b8
00000180: bc3d 49be 6d3c be3c b5ab 7b3b 1287 f139
00000190: 079b 1dbd 58ea f2bc 988b 1b3d 598a 24bd
000001a0: c349 cb3c d839 493b 0cd3 2dbc 675b 29be
000001b0: 0451 67bc 8d5c fa3d 1cbf 4cbc d10a a73d
000001c0: 8283 aebd daf7 afbd 41bd c93c 72d4 be3d
000001d0: c11c 03be 7d7a c1bd 210e 63bb 1210 593c
000001e0: 7912 d33c 8795 06bd 1c11 163e 2f7f 44bd
000001f0: 7b90 a43d 1238 d33d 3233 fe3d dbf2 a33c
00000200: b81d 92bd 48f2 51bd 1c73 ddbd 1ed5 ebbc
00000210: a45a 5cbd 0e51 a6bd 3529 1ebe 74af 0a3e
00000220: 3f19 66bd a894 04bd 8181 ec3d 8999 c43d
00000230: ce02 cb3c 70bf 15be 1c8c 2b3d a01a 8fbc
00000240: 51b3 debc 0197 5b3d 8c1b 13bd 68b2 63bd
00000250: f340 3c3c 62f3 b8bd e42d 88bd 68ff 70bd
00000260: ea30 cabd aee6 98ba 9edc 79bd 16ed ebbd
00000270: 2524 9c3c bea4 12bd 1c4b 5e3d fa17 e3bc
00000280: 04da 12be 9fe2 48bc 81f8 30bd 6374 48bd
00000290: 73d2 27bd 9077 3b3d 5c89 9f3d d80d a4bc
000002a0: 0282 e33c ea87 2abc 5824 efbc 437f debb
000002b0: bff5 b2bd 6762 f33d 468c 36bd f3a3 423c
000002c0: ed74 413d c284 c53d d8b6 4bbd ee25 b3bd
000002d0: cb29 3d3c 050e 903d f002 663d 1808 183e
000002e0: 388c 263e dbf2 043d 7505 4a3d 2a58 dabc
000002f0: 95f2 6a3b b046 12be fb28 9f3b 3fd6 fa3d
00000300: 77f8 84bd ee10 da3d 75d7 6bbd a41c 19bd
00000310: 4aa6 693d b68e e53c 27ee 5c3d 3ac7 6a3d
00000320: 7547 b2bd 4e59 383d 0bb0 d03c fa20 243d
00000330: 4bc9 e23c 9448 eebb 71fb 94bd ee2d 113e
00000340: d1cb aabc 4e4f 5fbc 0822 d5bc 080e 0ebe
00000350: 6bce c6bd 1ba2 56bd 4ce2 163e 5209 afbc
00000360: 6217 ecbd 382b 8ebd 51a6 233d 6272 ba3d
00000370: ee97 f6bd 05b0 2fbd 2134 9aba f159 0f3d
00000380: ceb7 9fbd aa67 8c3d 3fa5 f7bd 77b4 ec3d
00000390: b565 11bd 481c 3dbd f9c1 533d 6f60 c03c
000003a0: b67c 023d a82b d93d dc4b d33d 330c 93bd
000003b0: cc34 78bd 5ab2 f73d 6200 183e e597 bd3d
000003c0: db06 b2bd dc8f 08bb 253d 003d e60c cd3d
000003d0: 5b07 ed3c 83c7 3d3d 3351 47bd 2fae 1abd
000003e0: e524 15bd 610a 74bd f411 053e a1f6 1ebd
000003f0: c4e3 96bb 6d53 fcbc 3542 80bc 2bee 893b

bias_ih_l0 f4 [240]
0.10725347 -0.068595804 0.057870828 -0.0012720047 0.10837156 0.07962403 0.14284834 -0.006719342
0.08469798 0.124438964 -0.05958047 -0.049763188 0.028682426 0.10620406 -0.025132062 -0.045998044
-0.04695165 0.06090554 0.05229831 0.020881467 0.09311352 -0.05329545 -0.039268997 -0.030266799
0.0241248 0.033451036 -0.032792807 -0.060176715 0.052013133 -0.05966064 -0.059289854 0.052924346
0.11596188 -0.021831444 0.07045905 0.117966466 0.016583392 -0.07799879 0.11809256 0.08374406
-0.004268543 -0.07581267 0.031270683 -0.11287952 0.027841516 0.047919452 -0.0568449 0.07145041
-0.060608685 -0.0062653413 -0.005067482 -0.04430903 -0.015404733 0.036802158 -0.049690746 0.028758576
0.0037217352 0.052599084 0.006731317 0.12175324 0.060947105 0.0627178 0.006347319 0.07988164
0.08715608 -0.0439837 0.113822155 0.03973203 -0.053018447 0.055789825 0.05179911 0.027633544
-0.0053498833 0.02508347 -0.055778533 -0.07396305 -0.038747635 0.11398069 -0.016233502 -0.05868025
-0.09648187 -0.035926115 -0.0024372889 -0.011599801 -0.105328694 -0.039409883 0.06628132 0.08283943
-0.018118894 0.035096038 0.08743723 -0.015413487 0.096264265 0.032601938 -0.1764601 -0.07866265
0.09801732 0.09250261 -0.08358177 0.035235662 -0.013975276 0.06294066 0.11134447 -0.13509569
-0.0957739 0.013420837 -0.0036939732 0.08654451 0.055925656 -0.071191214 0.012075003 0.061292276
0.04067314 0.05324996 -0.093625054 0.027489163 -0.07978519 0.024245385 0.0006633143 0.07271607
-0.07974826 -0.017955018 -0.019996729 -0.019500436 -0.11527301 -0.023242565 -0.01882903 0.03875534
-0.020393776 -0.07848104 -0.12656455 0.06128841 0.047424603 -0.012624524 0.018450433 0.08717505
-0.023327367 -0.07504187 -0.025504267 -0.061249938 -0.062214848 0.08620013 -0.039005123 -0.08004309
-0.071279295 -0.013079374 0.031030698 -0.03381094 -0.11034183 -0.070957564 0.0409419 -0.1641609
-0.14277707 -0.048156902 -0.032465864 0.011080206 0.05670283 -0.019077068 0.0031834263 0.062989786
0.10309927 -0.04216513 0.04652201 -0.0047702873 0.06233086 -0.023569405 -0.10173357 0.04465973
0.099463046 -0.09782189 0.023428377 -0.09609953 -0.0721894 0.110145636 -0.11414221 -0.10421099
0.099248335 0.011290999 0.002256113 -0.08579251 0.01497465 -0.0933341 0.10920982 0.05887844
0.105486006 0.012725693 0.052019447 0.049964126 0.000549764 -0.06369435 -0.02766523 -0.05928826
-0.012452749 0.087655395 -0.027586265 0.11251509 -0.020565543 -0.06187861 -0.059457112 0.016592268
-0.07266689 -0.07462867 -0.10937854 -0.10943318 -0.015424082 -0.043968983 0.016664086 0.026015023
-0.11791139 0.09722831 -0.0787518 -0.07371029 -0.036961738 -0.0071729366 -0.10656097 -0.01271402
0.10194789 -0.09126065 0.07813686 -0.020883385 0.042353585 -0.03875464 0.019692663 0.022397185
-0.020780452 -0.08783235 0.06984914 -0.081370205 -0.098181635 0.009562206 0.087291524 -0.0027983359
0.059312824 0.10483013 0.0073080743 0.0728212 -0.063792974 0.10676382 0.09814939 0.0096444525
00000000: b5a7 db3d f57b 8cbd f609 6d3d 65b9 a6ba
00000010: e9f1 dd3d ec11 a33d d646 123e ed2d dcbb
00000020: 2276 ad3d dbd9 fe3d a70a 74bd 7cd4 4bbd
00000030: 68f7 ea3c 8481 d93d c1e1 cdbc 7268 3cbd
00000040: 6050 40bd 1678 793d c136 563d 9c0f ab3c
00000050: 4db2 be3d 544c 5abd 87d8 20bd 14f2 f7bc
00000060: 5fa1 c53c f403 093d c051 06bd dc7b 76bd
00000070: b90b 553d b75e 74bd ebd9 72bd 33c7 583d
00000080: 6c7d ed3d dbd7 b2bc d64c 903d 6798 f13d
00000090: e5d9 873c d4bd 9fbd 83da f13d 0182 ab3d
000000a0: 22df 8bbb ac43 9bbd b015 003d 612d e7bd
000000b0: e413 e43c 3047 443d 33d6 68bd 9854 923d
000000c0: d040 78bd 7e4d cdbb 1f0d a6bb 637d 35bd
000000d0: 2264 7cbc dcbd 163d 8688 4bbd 1b97 eb3c
000000e0: 5be8 733b 2372 573d 6192 dc3b c359 f93d
000000f0: aca3 793d 3172 803d 2cfd cf3b fc98 a33d
00000100: e37e b23d 4128 34bd 971b e93d 0ebe 223d
00000110: df29 59bd df83 643d 4e2b 543d be5f e23c
00000120: 134e afbb d97b cd3c 0878 64bd f179 97bd
00000130: d7b5 1ebd b56e e93d 1ffc 84bc b45a 70bd
00000140: 4998 c5bd 4327 13bd ecba 1fbb 170d 3ebc
00000150: 92b6 d7bd 426c 21bd 80be 873d b8a7 a93d
00000160: 136e 94bc ddc0 0f3d 4a12 b33d da88 7cbc
00000170: 3326 c53d 9c89 053d f5b1 34be e219 a1bd
00000180: 4ebd c83d 0272 bd3d eb2c abbd 4553 103d
00000190: 8ef8 64bc 08e7 803d 9208 e43d 8656 0abe
000001a0: 1b25 c4bd 12e3 5b3c 9616 72bb 403e b13d
000001b0: 4d12 653d b3cc 91bd 3cd6 453c 9c0d 7b3d
000001c0: e198 263d a11c 5a3d 7ebe bfbd f430 e13c
000001d0: 6b66 a3bd 429e c63c 45e2 2d3a 2aec 943d
000001e0: 0e53 a3bd 6716 93bc 2ed0 a3bc 61bf 9fbc
000001f0: 4214 ecbd 3167 bebc 573f 9abc ebbd 1e3d
00000200: d910 a7bc abba a0bd 239a 01be 8e09 7b3d
00000210: 4d40 423d 17d7 4ebc 5d25 973c d588 b23d
00000220: 0919 bfbc 8daf 99bd 53ee d0bc 37e1 7abd
00000230: ffd4 7ebd b289 b03d d6c3 1fbd a2ed a3bd
00000240: e1fa 91bd df4a 56bc 1734 fe3c 577d 0abd
00000250: e6fa e1bd 3352 91bd b2b2 273d cc19 28be
00000260: 2734 12be 2c40 45bd edfa 04bd c189 353c
00000270: 3a41 683d 8347 9cbc 08a1 503b ca00 813d
00000280: b625 d33d 58b5 2cbd dd8d 3e3d 1250 9cbb
00000290: a54e 7f3d a014 c1bc b159 d0bd 1fed 363d
000002a0: 48b3 cb3d d856 c8bd deec bf3c d5cf c4bd
000002b0: 09d8 93bd 0994 e13d 64c3 e9bd 926c d5bd
000002c0: b642 cb3d e2fd 383c 4cdb 133b fcb3 afbd
000002d0: 3c58 753c f325 bfbd 66a9 df3d 852a 713d
000002e0: 0c09 d83d 6d7f 503c 5812 553d 2fa7 4c3d
000002f0: 0a1e 103a 2f72 82bd 31a2 e2bc 3fd8 72bd
00000300: 9d06 4cbc ac84 b33d 97fc e1bc 506e e63d
00000310: 1279 a8bc 6d74 7dbd 4d89 73bd 82ec 873c
00000320: 61d2 94bd ebd6 98bd db01 e0bd 811e e0bd
00000330: 4ab5 7cbc d218 34bd 1f83 883c 751d d53c
00000340: 877b f1bd a31f c73d a048 a1bd 6cf5 96bd
00000350: 3165 17bd f40a ebbb a33c dabd 774e 50bc
00000360: 0eca d03d dde6 babd 3806 a03d a213 abbc
00000370: f47a 2d3d 2fbd 1ebd 8252 a13c 4d7a b73c
00000380: c43b aabc 72e1 b3bd 110d 8f3d 6ca5 a6bd
00000390: 7413 c9bd cdaa 1c3c e6c5 b23d 4964 37bb
000003a0: 01f2 723d 2eb1 d63d 9278 ef3b 4823 953d
000003b0: e4a5 82bd fda6 da3d 8c02 c93d c403 1e3c

bias_hh_l0 f4 [240]
0.033047855 -0.08596075 0.030618498 -0.07777358 -0.020394316 0.007603044 0.10175804 0.064653076
-0.05726504 0.06260641 0.09003542 -0.09277817 -0.02066544 0.0432916 0.01516486 -0.006528091
-0.08496456 0.08209679 0.0375003 -0.047613297 0.030176116 -0.09977295 -0.042084362 0.006455809
0.009335678 -0.007313247 0.035551887 0.1059808 0.05253368 -0.060388625 -0.0529552 0.11832422
-0.04197747 0.026836311 -0.0023927654 -0.056276068 -0.08355139 0.0215098 0.0066844467 0.035948686
0.016282333 -0.06772567 0.034797143 -0.040847234 0.04709216 0.03145611 0.10397253 0.08342765
-0.05647552 0.1456468 0.08422996 0.13538139 0.13005094 0.042742055 -0.003313162 -0.00199885
0.056695964 0.07776063 0.038467538 0.06754848 0.032221343 0.0983486 0.05183875 0.0773508
0.0146519365 0.15577078 0.0061816364 0.037020676 0.0101907635 -0.025882872 -0.06479113 0.10523846
-0.012575488 -0.011195802 -0.01625424 0.04947333 -0.037243627 0.026497139 -0.06144902 0.09462707
0.041749552 0.05570798 0.037939332 -0.07245309 0.020273272 -0.03400026 0.087021835 0.039109495
0.08391907 -0.0761939 -0.07742214 -0.031300183 0.100357495 0.032685496 0.021866944 -0.06779758
-0.078906104 -0.080421805 -0.005969835 -0.019907057 0.0020358462 -0.13059708 0.023720559 0.050174896
0.057348866 -0.07350767 0.030949261 0.09316116 0.050328635 -0.13652888 -0.123577334 -0.0998681
-0.05303801 -0.012022877 -0.027784549 0.051309004 0.048930492 -0.0085013835 -0.042078443 0.09426509
0.077222876 0.021193948 -0.14454184 -0.09624019 -0.07924558 -0.033105724 0.08135148 -0.044296976
-0.1066781 -0.048322264 0.024888104 0.019037297 0.03170528 -0.018199869 -0.030860022 0.06563236
-0.068694055 0.04720643 -0.0103844255 -0.012869492 -0.033970866 -0.037480853 0.018932248 -0.10145882
-0.021712009 -0.09946052 -0.06477511 -0.038321767 0.030632732 -0.036484107 -0.08992337 -0.16597709
-0.11210341 -0.03823119 -0.01625934 -0.0004593084 0.044084124 0.03897604 -0.05012345 -0.0042962176
0.015588545 0.05876239 0.0724642 0.0743968 0.011017461 -0.039703667 -0.0856196 0.010701477
0.004326608 -0.06305071 -0.06149907 -0.008004412 0.06937562 0.027623514 0.04587979 -0.059616603
-0.052691422 0.05101183 0.059178665 -0.080401815 -0.075755216 0.016492607 0.03844998 0.014397268
-0.0746692 0.029802484 -0.07693267 0.046910174 0.061132554 -0.058943298 -0.019392492 -0.023836927
-0.032343294 0.1027712 0.031851143 -0.0016861014 -0.012936034 -0.09064617 -0.09657257 0.045477178
-0.05772727 -0.02422588 -0.0411088 0.079733096 0.09909506 0.07505394 -0.09258198 0.10717395
0.024788896 -0.05769074 -0.020451294 0.10110068 -0.018020092 0.05946631 -0.02737648 -0.08545866
-0.019269189 0.095557615 -0.010049927 0.0023258247 -0.015886307 0.07899922 -0.06951675 -0.020594904
-0.09313151 -0.023458805 0.014065979 -0.041529946 -0.037359856 0.053216875 -0.10976751 0.10611247
0.049305927 0.11218235 -0.08360973 -0.09912457 0.04529999 -0.0067473124 -0.09893313 0.12524955
00000000: 305d 073d 310c b0bd a5d3 fa3c c147 9fbd
00000010: fb11 a7bc f522 f93b 8566 d03d d568 843d
00000020: bf8e 6abd ca37 803d 7e64 b83d 7b02 bebd
00000030: 924a a9bc 8852 313d 0876 783c 99e9 d5bb
00000040: e601 aebd 5d22 a83d ea99 193d 2906 43bd
00000050: e733 f73c c355 ccbd a760 2cbd 408b d33b
00000060: acf4 183c f6a3 efbb db9e 113d 760c d93d
00000070: 8e2d 573d 105a 77bd 8de7 58bd f853 f23d
00000080: 91f0 2bbd d3d7 db3c f1cf 1cbb bc81 66bd
00000090: fe1c abbd 5235 b03c 3409 db3b ee3e 133d
000000a0: 8762 853c c2b3 8abd 7387 0e3d 6e4f 27bd
000000b0: b5e3 403d 1fd8 003d 8def d43d 1edc aa3d
000000c0: e052 67bd 6f24 153e c280 ac3d 6ba1 0a3e
000000d0: 132c 053e 4b12 2f3d a221 59bb 23ff 02bb
000000e0: 073a 683d f740 9f3d 2390 1d3d dc56 8a3d
000000f0: 87fa 033d fe6a c93d de54 543d 196a 9e3d
00000100: ad0e 703c 6082 1f3e 538f ca3b fea2 173d
00000110: 29f7 263c 5108 d4bc 36b1 84bd 4387 d73d
00000120: 6b09 4ebc 996e 37bc 9d27 85bc 8ca4 4a3d
00000130: c68c 18bd 8710 d93c f8b1 7bbd d6cb c13d
00000140: 9401 2b3d 0d2e 643d 4666 1b3d 4962 94bd
00000150: 2214 a63c db43 0bbd 8138 b23d 4731 203d
00000160: c3dd ab3d 8c0b 9cbd 808f 9ebd 9f34 00bd
00000170: 3b88 cd3d 3ae1 053d 4e22 b33c 75d9 8abd
00000180: 8699 a1bd 30b4 a4bd 9b9e c3bb 2014 a3bc
00000190: d56b 053b 3ebb 05be 9e51 c23c 3184 4d3d
000001a0: a5e6 6a3d 308b 96bd 4e89 fd3c 47cb be3d
000001b0: 6625 4e3d 3ace 0bbe 1d16 fdbd a587 ccbd
000001c0: 623e 59bd 9afb 44bc 6c9c e3bc 6429 523d
000001d0: 576b 483d 6349 0bbc 725a 2cbd 0e0e c13d
000001e0: 0727 9e3d ee9e ad3c c702 14be 9419 c5bd
000001f0: 824b a2bd de99 07bd 9b9b a63d bf70 35bd
00000200: 0c7a dabd 91ed 45bd 23e2 cb3c 1bf4 9b3c
00000210: 65dd 013d e417 95bc 28ce fcbc 426a 863d
00000220: 78af 8cbd 885b 413d 7023 2abc 90da 52bc
00000230: 0925 0bbd 8685 19bd cd17 9b3c a4c9 cfbd
00000240: 62dd b1bc f5b1 cbbd d0a8 84bd 49f7 1cbd
00000250: 7ff1 fa3c 5c70 15bd be29 b8bd e6f5 29be
00000260: 7996 e5bd 4f98 1cbd 4f32 85bc 54cf f0b9
00000270: 8e91 343d 57a5 1f3d 3f4e 4dbd 49c7 8cbb
00000280: 1967 7f3c d5b0 703d 1c68 943d 595d 983d
00000290: 9582 343c 50a0 22bd 5459 afbd 3f55 2f3c
000002a0: 38c6 8d3b bb20 81bd 73e6 7bbd f024 03bc
000002b0: ce14 8e3d b54a e23c 72ec 3b3d 8a30 74bd
000002c0: f6d2 57bd c8f1 503d 5465 723d b5a9 a4bd
000002d0: 8d25 9bbd 811b 873c ba7d 1d3d 85e2 6b3c
000002e0: 2aec 98bd 5724 f43c e08e 9dbd e224 403d
000002f0: 2166 7a3d 876e 71bd 01dd 9ebc a945 c3bc
00000300: 677a 04bd b579 d23d 5876 023d 2d00 ddba
00000310: a9f1 53bc b3a4 b9bd d7c7 c5bd 4746 3a3d
00000320: 6e73 6cbd 5a75 c6bc b361 28bd 1b4b a33d
00000330: 5af2 ca3d e1b5 993d 9f9b bdbd 047e db3d
00000340: 1512 cb3c 204d 6cbd 7989 a7bc e00d cf3d
00000350: df9e 93bc f292 733d a444 e0bc f304 afbd
00000360: 6bda 9dbc b6b3 c33d 73a8 24bc dd6c 183b
00000370: 0024 82bc 58ca a13d cc5e 8ebd a5b6 a8bc
00000380: bcbb bebd ae2c c0bc fe74 663c 4e1b 2abd
00000390: a606 19bd f0f9 593d cacd e0bd 7f51 d93d
000003a0: 03f5 493d dcbf e53d 943b abbd d301 cbbd
000003b0: 7b8c 393d 8f18 ddbb 749d cabd 6b41 003e

weight f4 [40, 80]
-0.10515666 -0.10502981 0.064553134 0.0080067925 -0.057879 0.016375747 -0.053812556 -0.0818373
-0.056646105 0.09346913 -0.039844472 0.09867452 0.0471702 0.016523486 -0.058017217 -0.06717639
0.012298641 0.09076712 -0.06128127 -0.03837357 0.05600302 -0.16749972 0.05436654 -0.091826096
-0.07728752 -0.0024252054 0.0014943641 0.0370264 -0.090669796 -0.028941777 -0.084667675 0.016928965
-0.068077296 -0.039247774 0.10496377 -0.02657913 -0.03860881 0.10270947 0.031235468 -0.14752656
0.06741411 -0.046942525 -0.0290159 0.07131107 0.0736176 -0.10866467 -0.03259656 -0.017760377
-0.07464198 0.092194445 -0.022709148 0.004258859 -0.07543578 0.07789569 0.009390923 -0.16635881
0.058448344 -0.10753531 0.094647326 0.051600408 -0.029842459 0.03720176 -0.035815623 0.024331644
0.06746309 -0.03178275 0.0998307 -0.078361586 -0.006754845 -0.080458425 0.07943283 -0.15752028
-0.099790744 0.0060273195 -0.010584033 -0.08791657 -0.081553355 -0.048434056 0.02426404 -0.037895963
-0.059996486 -0.04222278 0.086778514 -0.17382579 -0.08814741 0.1006335 0.021354781 -0.10363584
0.11400979 -0.032998435 0.06038689 0.08218802 -0.031857077 0.025094774 0.0727835 -0.09710137
-0.006218885 0.017086634 0.15065177 0.008310085 -0.06709157 -0.021829747 0.015642844 0.024084162
-0.006438555 0.08986177 0.009838205 -0.118486315 -0.14827842 -0.013085533 -0.08703077 -0.056141112
-0.037871215 0.023537058 -0.08094336 -0.011819828 -0.046957675 -0.047289304 -0.048853684 -0.09418176
-0.010885412 -0.09302456 -0.10102052 0.09183602 0.08167278 -0.11117561 -0.0012459754 -0.09406109
0.1299557 -0.080038324 -0.04498652 0.0064179436 -0.120038316 0.024260469 0.018371638 -0.09943769
-0.03819341 0.0019352812 0.15222305 0.07142577 0.015347113 -0.002869981 -0.09308983 -0.027498566
0.07541744 0.15516509 0.008359844 0.10370249 -0.022305675 0.03219945 -0.039708074 0.083844304
-0.032910157 -0.039279193 -0.08896872 0.021074537 0.0047317804 0.015883464 -0.0072542424 -0.044711467
0.1132422 -0.0029482734 -0.047716044 0.05795456 0.0050074924 -0.044876266 0.048446946 -0.041966848
-0.01964563 -0.039796405 -0.069485605 0.05487447 0.06644427 -0.032550227 -0.059446085 0.015017536
-0.10080816 0.031038776 0.041706838 -0.030133676 -0.13335648 0.08148901 0.005671693 0.033468816
0.08204754 0.081661716 0.04633279 -0.09860259 0.057558883 0.056603216 0.078037396 -0.051883824
0.0063354317 -0.040106524 0.004513133 -0.1124398 0.011141099 -0.06924458 0.006341271 -0.07828899
0.05018903 -0.053548623 -0.08048489 0.12252005 0.07825234 -0.008334101 -0.10771028 0.047894735
0.095677145 0.0506314 0.09913946 -0.07515151 0.04130585 0.06417484 -0.0046641463 -0.0020937698
0.011558708 -0.04730324 -0.06118173 -0.021766026 -0.114055194 0.09940175 -0.08213382 0.05958397
-0.0022664815 0.070514925 0.11070188 0.099307634 0.10186825 0.07832274 0.05870723 0.060645834
0.074810475 0.07329128 -0.101176016 -0.14507504 0.08239526 -0.00944368 -0.089988016 -0.13163131
0.10914075 -0.0019555353 -0.014686594 0.05031361 -0.051223453 -0.07095882 0.042424645 -0.045240585
0.103248134 -0.09655112 0.049695913 0.062073067 0.021782931 0.12659581 0.013149466 -0.0475052
00000000: 605c d7bd de19 d7bd 6f34 843d ec2e 033c
00000010: 8812 6dbd 6e26 863c 8e6a 5cbd 509a a7bd
00000020: bf05 68bd be6c bf3d f533 23bd de15 ca3d
00000030: 8a35 413d 435c 873c 76a3 6dbd c693 89bd
00000040: 3d80 493c 1de4 b93d 1202 7bbd 9b2d 1dbd
00000050: 6c63 653d 0c85 2bbe 73af 5e3d 520f bcbd
00000060: eb48 9ebd 32f0 1ebb 8ade c33a ffa8 173d
00000070: 16b1 b9bd 4e17 edbc 3f66 adbd 9dae 8a3c
00000080: 1c6c 8bbd 46c2 20bd 3ff7 d63d 7abc d9bc
00000090: 4624 1ebd 5859 d23d 86e1 ff3c 3411 17be
000000a0: 6910 8a3d ce46 40bd c1b2 edbc 8a0b 923d
000000b0: d3c4 963d 958b debd f883 05bd 367e 91bc
000000c0: e5dd 98bd 71d0 bc3d 8908 babc e68d 8b3b
000000d0: 137e 9abd c787 9f3d 63dc 193c f759 2abe
000000e0: 8867 6f3d 793b dcbd 75d6 c13d f35a 533d
000000f0: 2c78 f4bc df60 183d 67b3 12bd 2853 c73c
00000100: 172a 8a3d a12e 02bd 0a74 cc3d 0a7c a0bd
00000110: bf57 ddbb 63c7 a4bd aead a23d ff4c 21be
00000120: 175f ccbd d280 c53b a768 2dbc 9a0d b4bd
00000130: 7205 a7bd ca62 46bd 61c5 c63c cc38 1bbd
00000140: e0be 75bd cbf1 2cbd efb8 b13d 63ff 31be
00000150: a186 b4bd f018 ce3d 39f0 ae3c 073f d4bd
00000160: f77d e93d 5e29 07bd 3e58 773d 3152 a83d
00000170: 917c 02bd 8e93 cd3c 840f 953d 15dd c6bd
00000180: cac7 cbbb 45f9 8b3c 7544 1a3e 0627 083c
00000190: 4e67 89bd 4cd4 b2bc 6c25 803c 264c c53c
000001a0: 84fa d2bb 7309 b83d 6c30 213c f4a8 f2bd
000001b0: 4cd6 17be b464 56bc 303d b2bd 39f4 65bd
000001c0: d91e 1bbd cad0 c03c a2c5 a5bd f4a7 41bc
000001d0: b156 40bd 6eb2 41bd cd1a 48bd 5ee2 c0bd
000001e0: ba58 32bc a983 bebd d9e3 cebd 8614 bc3d
000001f0: 0f44 a73d 0ab0 e3bd ff4f a3ba 1aa3 c0bd
00000200: 1b13 053e 22eb a3bd c943 38bd 9d4d d23b
00000210: a6d6 f5bd e4bd c63c 1e80 963c fda5 cbbd
00000220: b170 1cbd 43a9 fd3a 5ce0 1b3e ad47 923d
00000230: 7572 7b3c 4b16 3cbb e1a5 bebd ac44 e1bc
00000240: 7574 9a3d 99e3 1e3e baf7 083c f961 d43d
00000250: 64ba b6bc 92e3 033d efa4 22bd 90b6 ab3d
00000260: cdcc 06bd 38e3 20bd 3b35 b6bd 82a4 ac3c
00000270: 0d0d 9b3b 0a1e 823c ffb4 edbb 5f23 37bd
00000280: 87eb e73d d237 41bb e671 43bd c361 6d3d
00000290: e415 a43b 2dd0 37bd 4e70 463d 6ee5 2bbd
000002a0: dfef a0bc 8e01 23bd 784e 8ebd 0dc4 603d
000002b0: ef13 883d 6353 05bd bd7d 73bd 1c0c 763c
000002c0: 8274 cebd 0845 fe3c cad4 2a3d e6da f6bc
000002d0: 9a8e 08be b6e3 a63d 9cd9 b93b 9916 093d
000002e0: 8a08 a83d 423e a73d 74c7 3d3d 28f0 c9bd
000002f0: ddc2 6b3d c6d8 673d 12d2 9f3d 2284 54bd
00000300: 7499 cf3b bd46 24bd e7e2 933b d646 e6bd
00000310: 2889 363c 1ad0 8dbd 70ca cf3b fa55 a0bd
00000320: 0393 4d3d cd55 5bbd 43d5 a4bd cbeb fa3d
00000330: c342 a03d c18b 08bc 3597 dcbd 452d 443d
00000340: 61f2 c33d df62 4f3d a109 cb3d 09e9 99bd
00000350: 5330 293d 196e 833d b2d5 98bb a137 09bb
00000360: bc60 3d3c 0bc1 41bd b299 7abd aa4e b2bc
00000370: c595 e9bd 2593 cb3d c735 a8bd 520e 743d
00000380: 4089 14bb 216a 903d abb7 e23d cd61 cb3d
00000390: 4da0 d03d ac67 a03d fe76 703d c467 783d
000003a0: 3c36 993d bd19 963d 5f35 cfbd 8d8e 14be
000003b0: d9be a83d aab9 1abc a34b b8bd 5cca 06be
000003c0: 2f85 df3d 7028 00bb 0aa0 70bc a515 4e3d
000003d0: afcf 51bd dc52 91bd 77c5 2d3d 314e 39bd
000003e0: c273 d33d 98bc c5bd f18d 4b3d 5440 7e3d
000003f0: 1e72 b23c 55a2 013e dc70 573c d094 42bd

bias f4 [40]
-0.05570167 0.087735154 -0.020484123 0.040675893 -0.083415374 0.06058497 -0.08299403 0.06226201
0.026097534 -0.08361549 0.016106997 -0.09140511 -0.043873828 0.019068122 0.05186196 -0.14415619
0.06467622 -0.03923137 -0.084490806 0.101595536 0.037219025 0.046981957 -0.06955499 0.08425761
-0.038938005 0.046569195 -0.019947974 0.085571826 0.10928614 -0.011518631 0.12644035 -0.046732944
0.032252546 -0.10337112 0.0035582606 0.08878243 -0.085173726 0.10827846 -0.0020936867 -0.06685931
00000000: 6f27 64bd 7dae b33d 52ce a7bc c49b 263d
00000010: aed5 aabd f227 783d c6f8 a9bd 7306 7f3d
00000020: 7fca d53c 993e abbd d2f2 833c 9a32 bbbd
00000030: 0bb5 33bd c034 9c3c 356d 543d ae9d 13be
00000040: f774 843d 13b1 20bd 8409 adbd 5211 d03d
00000050: fa72 183d 2770 403d d972 8ebd 418f ac3d
00000060: 757d 1fbd 57bf 3e3d ef69 a3bc 4840 af3d
00000070: 69d1 df3d a4b8 3cbc 9479 013e 0b6b 3fbd
00000080: 3f1b 043d 3db4 d3bd b531 693b 90d3 b53d
00000090: 906f aebd 19c1 dd3d 3c36 09bb 89ed 88bd

weight f4 [4, 40]
-0.08161565 -0.100901775 0.03538695 0.19451894 0.14697933 0.11828676 0.119659886 0.030881353
0.08755594 -0.12990531 -0.065412 0.10070355 -0.122374035 0.029406184 0.18903357 0.12502074
-0.07932013 0.25355422 -0.079912536 -0.042669334 -0.085133195 0.16663451 0.05470221 0.06461434
-0.05871359 0.11335581 0.10823915 -0.06684187 0.13542514 -0.099818505 -0.13406746 0.1289673
-0.09992944 -0.09140553 -0.12150806 0.040656667 0.041819803 0.07786659 -0.039112534 0.01435645
-0.07372397 -0.12175024 -0.03184587 0.025128702 0.15611422 0.10716121 0.114995226 -0.07390833
-0.1775059 0.03330415 -0.05203579 0.14234602 0.1614585 -0.061609846 0.12272882 -0.07816867
-0.13680704 0.06729208 -0.16398615 0.1517684 -0.09404992 -0.06607991 0.14326863 -0.09987244
0.06725967 0.047600664 0.121174656 -0.10400224 0.094391875 -0.19997686 0.095089085 -0.03424814
0.07770741 0.023872469 0.0030404269 0.14121729 0.21144402 -0.06993802 -0.105209805 0.091232345
0.12548973 0.18861279 0.039971203 0.2436889 0.023988236 0.022607097 0.120577276 -0.13509023
-0.07808601 0.008431957 0.16951397 0.09495675 0.08680389 0.15853873 -0.031119496 -0.06214995
0.015532291 -0.003496683 -0.14646062 -0.052600477 0.16040738 0.15223858 0.02277016 0.11853877
0.124896415 0.1315964 -0.12197206 -0.018106027 0.14394099 0.058487 0.10128935 0.07496119
0.11510995 -0.027413897 -0.04457774 0.06573153 -0.14495556 0.16996351 0.0068205977 -0.070902675
0.016494414 -0.056564342 0.10629269 0.12640896 0.107758276 0.054011296 -0.1276632 0.026928296
-0.15423135 -0.13790967 0.08846273 0.08256828 -0.051882237 -0.026592834 0.13471824 0.0662687
-0.16353959 0.018755589 0.07074259 0.08694143 0.077979416 0.054468866 0.077713035 -0.10934866
0.088277325 -0.119453974 0.09152924 -0.09737614 0.031460777 -0.047589052 -0.14521223 -0.017371656
-0.11623788 -0.14349923 -0.11903928 -0.08194541 -0.03352543 0.00033365874 0.09294373 0.13773169
00000000: 1b26 a7bd 97a5 cebd e8f1 103d f92f 473e
00000010: c081 163e 5440 f23d 3e10 f53d e4fa fc3c
00000020: 8750 b33d e605 05be baf6 85bd aa3d ce3d
00000030: 3d9f fabd 3de5 f03c 0492 413e 7005 003e
00000040: 9872 a2bd dcd1 813e 2fa9 a3bd 0ac6 2ebd
00000050: 505a aebd 3da2 2a3e 6d0f 603d 8654 843d
00000060: a97d 70bd 1727 e83d 7dac dd3d 64e4 88bd
00000070: e3ac 0a3e a56d ccbd fb48 09be 0110 043e
00000080: cea7 ccbd d332 bbbd 38d9 f8bd 9b87 263d
00000090: 3e4b 2b3d 8578 9f3d 7734 20bd 5137 6b3c
000000a0: 98fc 96bd 3158 f9bd d170 02bd b5da cd3c
000000b0: 68dc 1f3e 5677 db3d 9e82 eb3d 405d 97bd
000000c0: 1bc4 35be ef69 083d 7b23 55bd 28c3 113e
000000d0: 6155 253e 9b5a 7cbd 3f59 fb3d e516 a0bd
000000e0: 2517 0cbe 6ed0 893d fceb 27be 2d69 1b3e
000000f0: 3f9d c0bd e754 87bd 03b5 123e ec89 ccbd
00000100: 70bf 893d eaf8 423d 6b2a f83d 20ff d4bd
00000110: 8750 c13d bcc6 4cbe 11be c23d c747 0cbd
00000120: 1025 9f3d 3290 c33c e641 473b 449b 103e
00000130: c884 583e aa3b 8fbd 3d78 d7bd 06d8 ba3d
00000140: 6180 003e b623 413e d8b8 233d 9589 793e
00000150: fa82 c43c 8532 b93c 38f1 f63d 1855 0abe
00000160: 8feb 9fbd 3126 0a3c 1295 2d3e af78 c23d
00000170: 3dc6 b13d fa57 223e 50ee febc f290 7ebd
00000180: 267b 7e3c 9b28 65bb c6f9 15be 9973 57bd
00000190: d541 243e 6ee4 1b3e 7d88 ba3c 74c4 f23d
000001a0: b1c9 ff3d 35c1 063e 7dcc f9bd 1753 94bc
000001b0: 4465 133e 1190 6f3d ca70 cf3d 4185 993d
000001c0: c4be eb3d 1c93 e0bc 2697 36bd 419e 863d
000001d0: 3b6f 14be ea0a 2e3e 527f df3b 6c35 91bd
000001e0: 4b1f 873c 03b0 67bd fbaf d93d 5a71 013e
000001f0: 5fb0 dc3d f33a 5d3d 24ba 02be bb98 dc3c
00000200: d3ee 1dbe 3138 0dbe f32b b53d 8f19 a93d
00000210: 7882 54bd 37d9 d9bc 94f3 093e e2b7 873d
00000220: ec76 27be 52a5 993c 7ee1 903d 590e b23d
00000230: acb3 9f3d bf1a 5f3d 0328 9f3d 31f2 dfbd
00000240: beca b43d 49a4 f4bd af73 bb3d 246d c7bd
00000250: 04dd 003d bdec 42bd 84b2 14be 014f 8ebc
00000260: 200e eebd 76f1 12be deca f3bd ffd2 a7bd
00000270: f651 09bd ebee ae39 4859 be3d 8909 0d3e

bias f4 [4]
0.13774753 0.07625704 0.14595616 -0.010059947
00000000: b00d 0d3e a72c 9c3d 8875 153e 7ad2 24bc

F f4 [2, 2]
1.0 1.0 0.0 1.0
00000000: 0000 803f 0000 803f 0000 0000 0000 803f

H f4 [2, 2]
1.0 1.0 1.0 0.0
00000000: 0000 803f 0000 803f 0000 803f 0000 0000

Q f4 [2, 2]
1.9952623 0.0 0.0 1.9952623
00000000: c164 ff3f 0000 0000 0000 0000 c164 ff3f

R f4 [2, 2]
1.9952623 0.0 0.0 1.9952623
00000000: c164 ff3f 0000 0000 0000 0000 c164 ff3f
