KNet/model_Ratio_0---R_-10---T_80---unsupervised_True.pt (torch, 459324 bytes, 28 tensors)

weight f4 [320, 4]
0.14813988 -0.18955356 0.26977786 0.37180224 -0.098873 0.2611723 0.39281854 -0.20970654
0.30919287 -0.37502727 -0.008687839 0.46254396 -0.43163493 0.351831 0.38903752 0.045052733
0.25452015 -0.29589593 0.22211047 -0.06153144 0.29333 -0.13287051 0.30263022 0.24093613
-0.30036217 0.43312317 0.31016943 -0.3748042 0.06656626 -0.16296433 -0.4082582 -0.233817
0.26576787 0.48652846 0.038598865 0.16738375 -0.13349304 -0.096849725 -0.4640582 -0.20834908
0.12698863 -0.38147926 0.26076236 0.19636798 -0.017655667 0.3469609 0.045477122 -0.32624683
-0.07657804 0.22228311 -0.23150073 0.31110963 -0.1978522 0.06214956 0.083482854 0.27622068
-0.26591182 -0.07740215 0.16818711 0.43480933 0.4645388 -0.4979343 0.33273652 0.4714207
-0.41161376 -0.5116516 -0.13523105 0.11255952 0.20097134 -0.29082257 -0.37673035 0.58696127
-0.559221 0.20552383 0.49870387 -0.55945337 0.43339777 0.18796915 -0.008349773 0.4830618
-0.17408067 -0.4170658 0.033893373 0.26595527 -0.17979555 0.47272095 0.030005941 0.33492798
-0.47890255 -0.2676773 -0.33539164 -0.40888813 0.06352005 0.33040193 -0.098315954 0.4451189
0.50489503 -0.40318388 0.42752075 0.31913495 0.0745789 0.36260575 -0.46052876 0.2568246
-0.4500248 0.48399872 -0.4148851 0.30569962 -0.21343656 -0.094007954 -0.008205102 0.061592583
0.22364284 -0.009080104 0.5201918 0.036948726 -0.16741426 -0.42654905 0.0060598357 -0.04614882
0.2204549 -0.41856503 0.3362689 -0.4956545 0.30466247 0.50744647 -0.25246271 -0.43447453
0.014274507 0.4202919 -0.3374672 0.22632436 0.21415582 0.43278715 0.44036892 0.38934848
0.1302537 -0.07814601 0.003384879 0.37406126 0.45692393 0.17195454 -0.39531267 -0.23497008
0.17926557 0.1932216 -0.018398302 -0.028660374 0.18798889 -0.48918605 0.26507193 -0.44029227
0.5015476 0.39654338 -0.28216642 -0.17644595 -0.08338718 -0.30565763 -0.23941138 0.054508816
0.47347072 -0.15302666 0.49864328 -0.30020443 -0.36230147 -0.20505504 0.16155317 -0.06506941
-0.14305912 0.307191 -0.1881202 0.01569202 -0.25275433 0.32347155 -0.46284756 0.407395
-0.0040976973 -0.0042029023 0.0043947934 -0.0046198075 -0.2150115 0.016021634 0.47736052 -0.43386823
-0.43831435 0.33544293 -0.47053927 -0.24252369 0.092690915 0.15629017 -0.29539388 -0.52012026
-0.29660004 0.4327401 0.07917334 0.5122026 -0.088836074 0.1620191 0.083662935 -0.31691697
-0.3381509 -0.5230615 -0.30446896 0.10931236 0.45478177 -0.31712848 -0.38099673 -0.18927877
-0.16841099 0.27543283 -0.33749357 -0.3456899 0.042220563 -0.17311302 0.2234095 0.3859546
0.20517853 -0.43113357 0.21977018 0.30401087 0.45606446 -0.2936452 -0.16848151 -0.016174164
-0.5061959 -0.113191985 -0.023297427 -0.07207267 0.29752833 -0.22016795 -0.41655833 0.43582013
0.3815225 0.5094743 -0.13202298 0.297764 0.49335352 -0.112115234 -0.38831073 -0.41763103
0.40596798 0.3767947 0.09812467 0.28288466 -0.026088003 0.52047104 -0.31842667 -0.5214663
0.073413014 0.26861605 0.08911417 -0.5220261 -5.120148e-16 -9.480056e-19 6.70448e-18 1.0352779e-24
00000000: fbb1 173e 541a 42be 5320 8a3e dd5c be3e
00000010: ed7d cabd 60b8 853e 831f c93e 50bd 56be
00000020: 874e 9e3e 9303 c0be 7057 0ebc 90d2 ec3e
00000030: 41ff dcbe 3123 b43e ed2f c73e 3789 383d
00000040: 7750 823e ac7f 97be ed70 633e 6408 7cbd
00000050: 5a2f 963e 350f 08be 59f2 9a3e f6b7 763e
00000060: 12c9 99be 52c2 dd3e 87ce 9e3e 56e6 bfbe
00000070: e453 883d 1fe0 26be 3807 d1be b96d 6fbe
00000080: ba12 883e 421a f93e d819 1e3d a566 2b3e
00000090: 66b2 08be 2659 c6bd 0999 edbe 7659 55be
000000a0: 4f09 023e 4051 c3be a582 853e b014 493e
000000b0: 9ea2 90bc dca4 b13e 3846 3a3d d309 a7be
000000c0: f3d4 9cbd 2f9e 633e 870e 6dbe c349 9f3e
000000d0: c499 4abe 8990 7e3d 0ff9 aa3d cc6c 8d3e
000000e0: 9825 88be 0585 9ebd 3e39 2c3e 549f de3e
000000f0: 08d8 ed3e 3ff1 febe 715c aa3e 0e5e f13e
00000100: 0abf d2be 99fb 02bf 027a 0abe 9b85 e63d
00000110: 6ecb 4d3e b2e6 94be cde2 c0be 1843 163f
00000120: 1c29 0fbf d774 523e 1d56 ff3e 5638 0fbf
00000130: 50e6 dd3e fc7a 403e 7ccd 08bc e053 f73e
00000140: 3442 32be a689 d5be c7d3 0a3d 4a2b 883e
00000150: 531c 38be 7b08 f23e 05cf f53c ae7b ab3e
00000160: b732 f5be 000d 89be 74b8 abbe c959 d1be
00000170: cd16 823d 712a a93e e059 c9bd a0e6 e33e
00000180: cd40 013f 1e6e cebe 00e4 da3e a865 a33e
00000190: d3bc 983d 76a7 b93e 6dca ebbe 847e 833e
000001a0: a769 e6be aece f73e d26b d4be a984 9c3e
000001b0: 1d8f 5abe 3e87 c0bd b16e 06bc 8148 7c3d
000001c0: a102 653e b7c4 14bc 4a2b 053f 8c57 173d
000001d0: a56e 2bbe a364 dabe 9691 c63b 8c06 3dbd
000001e0: eebe 613e 284e d6be 702b ac3e 6dc6 fdbe
000001f0: b8fc 9b3e 03e8 013f cb42 81be 7273 debe
00000200: 9fdf 693c 8030 d73e 80c8 acbe 93c1 673e
00000210: aa4b 5b3e 4796 dd3e 0978 e13e af58 c73e
00000220: 3a61 053e 040b a0bd d9d4 5d3b f584 bf3e
00000230: eff1 e93e da14 303e 6c66 cabe ff9b 70be
00000240: 6591 373e e2db 453e 09b8 96bc 29c9 eabc
00000250: 2980 403e 9876 fabe 82b7 873e fd6d e1be
00000260: 6c65 003f bc07 cb3e 1e78 90be 3fae 34be
00000270: e6c6 aabd 287f 9cbe 4228 75be a344 5f3d
00000280: c16a f23e 05b3 1cbe 2c4e ff3e 65b4 99be
00000290: 947f b9be f3f9 51be 326e 253e 1c43 85bd
000002a0: 177e 12be 2448 9d3e 95a2 40be 8d8c 803c
000002b0: 0469 81be 109e a53e 5bfa ecbe 1496 d03e
000002c0: fa45 86bb 80b8 89bb 3302 903b c161 97bb
000002d0: fa2b 5cbe cd3f 833c 9968 f43e fa23 debe
000002e0: bd6a e0be 2dbf ab3e 86ea f0be 2158 78be
000002f0: bcd4 bd3d 880a 203e de3d 97be 9a26 05bf
00000300: f6db 97be 1c90 dd3e a225 a23d b61f 033f
00000310: b0ef b5bd 56e8 253e 7957 ab3d f142 a2be
00000320: 1d22 adbe 5ce7 05bf 5be3 9bbe 29df df3d
00000330: 28d9 e83e aa5e a2be 0112 c3be 4bd2 41be
00000340: ee73 2cbe 8805 8d3e f5cb acbe 44fe b0be
00000350: 78ef 2c3d 8a44 31be 76c5 643e d79b c53e
00000360: 521a 523e 8abd dcbe 6f0b 613e 50a7 9b3e
00000370: 4881 e93e aa58 96be 6b86 2cbe ae7f 84bc
00000380: 0e96 01bf 33d1 e7bd 3fda bebc d69a 93bd
00000390: a255 983e b573 61be 2247 d5be d123 df3e
000003a0: eb56 c33e e86c 023f 0831 07be 8674 983e
000003b0: d598 fc3e ac9c e5bd aad0 c6be bcd3 d5be
000003c0: 09db cf3e 3ceb c03e 96f5 c83d 42d6 903e
000003d0: 82b6 d5bc 973d 053f d208 a3be d17e 05bf
000003e0: 9059 963d 0b88 893e 7d81 b63d 81a3 05bf
000003f0: 0694 13a6 a4e6 8ba1 065a f722 9533 a017

bias f4 [320]
-0.35186794 0.025747387 -0.37983966 0.03333112 0.05266791 -0.4615308 -0.28214836 -0.32421905
-0.08732577 0.32780117 0.31804895 0.0026312862 -0.3159959 -0.021992743 -0.4094322 -0.034536183
0.37312618 0.46879655 -0.10072494 -0.46805364 -0.10189989 0.37450874 0.2701476 -0.32375798
0.3690836 0.29150942 -0.1288676 -0.12904751 0.22838882 0.41094822 0.29865676 0.08187915
0.2470988 -0.073793404 0.40515676 0.31753796 0.38079435 -0.45687366 0.42315727 -0.016243221
-0.2360573 0.3904661 -0.34308544 -0.085865535 -0.008884537 0.2606935 -0.33293167 0.06595943
-0.14816682 0.46417874 0.26030135 -0.04335006 -0.32785997 -0.037726846 0.02632016 0.22853458
0.46651152 -0.077747196 0.4659469 0.12640023 -0.07423078 -0.29114845 -0.36115316 -0.008945096
-0.44427457 -0.42071483 -0.026092216 -0.15661427 -0.07537429 -0.18207666 -0.28709388 0.1800668
0.3948138 0.106431946 0.35229576 -0.18050162 0.24532206 0.39046544 0.094788276 0.42320234
-0.13972704 0.18940686 0.45469645 0.2930858 0.15856753 0.18446639 -0.19144048 0.45992506
0.12699263 -0.16362798 -0.22695765 0.4768197 0.21714006 0.3397774 -0.017925039 -0.20797065
0.4524497 -0.46962586 0.18658414 0.48145238 -0.047117077 -0.36650223 0.43625885 0.0010171966
0.4351747 0.101681106 -0.40033415 -0.030526439 0.43074673 0.10722453 -0.09725693 0.080822125
0.15979406 0.42608058 0.33848718 -0.37159097 -0.0144621935 -0.21864915 -0.06899344 -0.34727648
0.49828383 -0.36285123 0.38448885 0.5072442 -0.19046307 0.4597639 0.47241452 0.0032785248
0.017650178 0.037841745 0.1883943 0.23440327 -0.26744848 -0.47280586 -0.0035098528 0.37172818
-0.43796474 0.24946673 -0.11590804 -0.33857486 0.1735984 0.43681362 -0.11503294 0.19210011
-0.19212225 0.3712408 0.040320102 -0.22774246 0.25391015 -0.43653843 0.35626093 -0.07837148
0.33253932 -0.13675483 -0.0322832 -0.20530681 0.049548108 0.029764466 0.06980772 0.43622732
0.39387056 -0.27628773 -0.11771877 -0.35344553 -0.30983976 0.30970508 0.026781814 -0.026340026
0.45236415 -0.39181814 -0.015958134 0.006776241 0.13560814 -0.05787326 0.497478 0.4432124
-0.024570206 -0.42247844 0.12128952 0.1468117 0.03889761 -0.20452133 -0.41689977 -0.38133788
0.44378 -0.15319704 0.35941514 -0.4147255 0.19190773 0.29632834 0.13661148 0.3233367
0.13504213 0.39525074 -0.019350484 -0.27262527 -0.16840616 -0.16215336 -0.05293686 0.21879561
-0.39585876 -0.31035706 -0.28493482 -0.21236026 0.42753923 0.051111568 -0.010718082 0.084723525
0.2510616 0.2682641 -0.41728675 -0.27471787 0.4427147 -0.36411926 -0.046685353 0.2674929
-0.21613878 0.030657863 -0.04914625 -0.32983962 0.3093405 0.072956525 0.3792551 -0.21572033
0.22691438 0.41969952 -0.0787556 0.42350066 -0.02394584 -0.22544019 -0.13637534 0.2617604
-0.12784362 0.43817362 0.39860165 0.41912994 -0.2975024 0.45136377 0.34550062 0.07278088
-0.15186429 -0.03087597 0.19600184 -0.010330069 -0.30716854 0.49687722 -0.37336797 0.044743765
-0.16413784 -0.17086658 -0.13239911 -0.26334387 0.40720746 0.22320539 -0.015242891 0.09100882
00000000: 0928 b4be 2fec d23c 587a c2be 3686 083d
00000010: 4eba 573d c44d ecbe c075 90be 0a00 a6be
00000020: dad7 b2bd 8ed5 a73e 50d7 a23e a871 2c3b
00000030: 37ca a1be 202a b4bc 19a1 d1be d075 0dbd
00000040: 650a bf3e 1a06 f03e e148 cebd baa4 efbe
00000050: e4b0 d0bd 9cbf bf3e c950 8a3e 9bc3 a5be
00000060: 87f8 bc3e b940 953e def5 03be 0825 04be
00000070: c2de 693e ce67 d23e 8ae9 983e 41b0 a73d
00000080: 7807 7d3e ff20 97bd b570 cf3e 5694 a23e
00000090: 7af7 c23e 58eb e9be 12a8 d83e 8110 85bc
000000a0: 01b9 71be 2ceb c73e e5a8 afbe 45da afbd
000000b0: 7390 11bc 9e79 853e 0576 aabe bd15 873d
000000c0: 0bb9 17be d6a8 ed3e 3846 853e d58f 31bd
000000d0: 43dd a7be 7787 1abd 609d d73c f804 6a3e
000000e0: 99da ee3e ec39 9fbd 9890 ee3e 106f 013e
000000f0: 4f06 98bd 6911 95be 11e9 b8be 748e 12bc
00000100: f577 e3be ef67 d7be 58bf d5bc 7e5f 20be
00000110: d65d 9abd 4e72 3abe f8fd 92be 6e63 383e
00000120: 0925 ca3e fef8 d93d 1c60 b43e 6bd5 38be
00000130: b535 7b3e 16eb c73e 5b20 c23d faad d83e
00000140: 9b14 0fbe dff3 413e f9cd e83e 580f 963e
00000150: 875f 223e c2e4 3c3e f908 44be 4c7b eb3e
00000160: 5b0a 023e 188e 27be 9667 68be b621 f43e
00000170: f759 5e3e 4ef7 ad3e 88d7 92bc 42f6 54be
00000180: 7da7 e73e cd72 f0be ea0f 3f3e ed80 f63e
00000190: d6fd 40bd 2ea6 bbbe 525d df3e 7453 853a
000001a0: 38cf de3e 2f3e d03d 99f8 ccbe 9512 fabc
000001b0: d68a dc3e 8998 db3d a42e c7bd 1286 a53d
000001c0: 0ea1 233e 3c27 da3e 314e ad3e 2c41 bebe
000001d0: d6f2 6cbc 90e5 5fbe 6f4c 8dbd 39ce b1be
000001e0: 0f1f ff3e a3c7 b9be b9db c43e c2da 013f
000001f0: c008 43be 2d66 eb3e 51e0 f13e 85dc 563b
00000200: 1b97 903c f2ff 1a3d 6fea 403e 6907 703e
00000210: 02ef 88be 9c13 f2be 8f05 66bb 2853 be3e
00000220: ea3c e0be 3574 7f3e 3261 edbd af59 adbe
00000230: c7c3 313e 09a6 df3e 6496 ebbd e4b5 443e
00000240: b2bb 44be 4613 be3e b126 253d 5235 69be
00000250: 8300 823e f781 dfbe d567 b63e 3a81 a0bd
00000260: 9842 aa3e 7509 0cbe 643b 04bd f33b 52be
00000270: f5f2 4a3d 9cd4 f33c 5af7 8e3d 3059 df3e
00000280: 67a9 c93e 9675 8dbe 8a16 f1bd d0f6 b4be
00000290: 51a3 9ebe aa91 9e3e 8965 db3c 0ac7 d7bc
000002a0: 469c e73e 639c c8be a2ba 82bc 3b0b de3b
000002b0: dcdc 0a3e 830c 6dbd 70b5 fe3e bcec e23e
000002c0: 7547 c9bc 184f d8be a466 f83d ce55 163e
000002d0: 1a53 1f3d 0a6e 51be e373 d5be b83e c3be
000002e0: 2237 e33e afdf 1cbe 4305 b83e e756 d4be
000002f0: 7683 443e 59b8 973e e1e3 0b3e 638c a53e
00000300: 7c48 0a3e 4e5e ca3e e884 9ebc 8a95 8bbe
00000310: aa72 2cbe 880b 26be 52d4 58bd f50b 603e
00000320: 00ae cabe 1fe7 9ebe fae2 91be f874 59be
00000330: 6ce6 da3e 5d5a 513d e59a 2fbc 8783 ad3d
00000340: 258b 803e ea59 893e 9ca6 d5be d2a7 8cbe
00000350: 80ab e23e d76d babe 2439 3fbd d4f4 883e
00000360: 7c53 5dbe 3326 fb3c 944d 49bd bde0 a8be
00000370: e161 9e3e 3b6a 953d b92d c23e cae5 5cbe
00000380: 3e5c 683e dbe2 d63e 9e4a a1bd 14d5 d83e
00000390: 112a c4bc cbd9 66be faa5 0bbe 7605 863e
000003a0: 70e9 02be 4b58 e03e 8415 cc3e 3398 d63e
000003b0: 3c52 98be 2719 e73e 75e5 b03e 240e 953d
000003c0: 5082 1bbe 9aef fcbc b5b4 483e 733f 29bc
000003d0: 3245 9dbe b166 fe3e 162a bfbe 3d45 373d
000003e0: c013 28be a6f7 2ebe a293 07be 02d5 86be
000003f0: 7f7d d03e f48f 643e 52bd 79bc d562 ba3d

weight_ih_l0 f4 [240, 320]
0.03227697 -0.043159828 0.008458029 -0.019905796 -0.077307485 -0.080250315 -0.11666823 -0.011903911
0.09762616 0.00045165734 -0.01621816 0.07790774 -0.072314195 0.08564668 -0.110374644 0.15204696
0.11426877 0.10161153 -0.11310649 -0.04197762 -0.040533073 0.041414406 0.0405796 -0.05823624
0.024682913 0.06283737 -0.110300854 -0.10152375 -0.041627154 0.06801373 -0.12840909 0.09562516
-0.04478413 -0.045578916 0.02604696 -0.01682253 -0.015605802 0.031959895 -0.039196905 0.050808914
-0.11164895 0.009700979 -0.029889604 0.12574673 -0.0016821127 -0.08803573 0.025858091 -0.039003246
-0.06429206 0.01478311 0.042623322 0.02501598 -0.061625853 -0.002985795 -0.0030280107 0.05383069
-0.042051755 -0.037725862 0.09930095 -0.032909527 -0.034584884 -0.055011492 -0.062617004 3.680157e-24
0.13651809 0.019623805 0.04537012 0.15226161 0.06572756 0.020721342 0.15034768 0.102238305
0.06845547 0.0045928187 -0.100846514 0.121795714 -0.0024352695 -0.11072249 0.05866959 -0.093430005
-0.0014492236 0.04140547 0.06307042 0.05851812 0.08553734 -0.07638906 -0.0720948 -0.08478217
-0.15115845 0.023194818 0.025111152 -0.031710926 0.017642725 -0.05002127 -0.08954377 0.029750075
0.01284594 0.009053171 -0.10839642 -0.090306915 -0.005983385 0.018777192 -0.03509688 -0.0024772251
-0.02848222 -0.0076627014 0.05460448 -9.17893e-22 0.027714534 -0.032412317 0.09275557 -0.0789101
-0.053654958 0.014015124 -0.021104902 0.13692825 0.010999952 0.023718297 0.06313675 -0.019161478
-0.046978895 0.0925441 -0.08750753 0.10231137 0.126949 -0.027101303 -0.04371551 -0.06456512
0.103866816 -0.031038739 0.10537211 -0.042108577 0.094563246 0.061563093 -0.0018956589 -0.0141373025
0.023795016 0.100527056 -0.07524788 0.01996165 -0.10553058 -0.08694021 0.06520249 0.14104028
0.03874799 0.11036139 0.108683445 -0.053513113 0.07801808 0.0530253 -0.028601421 0.013226098
0.04353331 0.036049925 -0.16019358 -0.11968178 -0.069921054 0.08042801 -0.009160641 -0.027986757
0.095480666 0.03591147 -0.077147156 0.10958619 -0.03214525 0.0524042 0.10624308 -0.10579004
-0.058046073 -0.06302201 -4.7675408e-20 -0.040440205 0.06795844 -0.085131384 -0.08006226 0.0027308138
-0.0586086 -0.013585283 0.08337184 0.1309678 -0.038737416 0.04548776 0.061794996 0.07986062
-0.02874549 -0.13461307 0.07335201 -0.07963936 -0.06963346 -0.0046943645 -0.037026238 0.030429792
-0.107056245 0.059787627 -0.09170628 -0.033793982 0.0073715723 -0.092190556 -0.16973561 -0.1009835
0.060773455 -0.09386597 -0.1094403 0.045739375 0.03631924 0.0732909 0.07522883 -0.060848508
0.047754392 0.061407533 0.0080101555 0.012749201 0.108006045 0.0029157968 0.12003859 -0.0955854
-0.13647352 -0.025534134 0.08559703 0.032090798 0.09558989 0.112420745 0.008695159 0.020114275
0.087649226 0.0018025374 -0.048063934 0.10952176 0.009652178 -0.014590118 -0.01016996 -0.04658957
-0.023733025 -0.029969743 0.026094854 0.105647884 0.050606344 -0.07981585 0.08265381 -0.018972378
-0.14090428 -0.09829987 -0.031034125 -3.195713e-27 0.09950151 0.07658784 0.048238404 0.11659435
0.20025413 -0.14664453 0.04998315 0.07314924 0.007562283 0.12871844 -0.0081675965 -0.02418599
00000000: db34 043d 5cc8 30bd 8b93 0a3c 7b11 a3bc
00000010: 6353 9ebd 475a a4bd c1ef eebd 9f08 43bc
00000020: 39f0 c73d 6ccc ec39 f2db 84bc 188e 9f3d
00000030: 7719 94bd 8767 af3d 1a0c e2bd 33b2 1b3e
00000040: bf05 ea3d b519 d03d 60a4 e7bd baf0 2bbd
00000050: 0206 26bd 27a2 293d cb36 263d 2089 6ebd
00000060: d233 ca3c e1b0 803d 6ae5 e1bd afeb cfbd
00000070: 3c81 2abd c84a 8b3d ac7d 03be 20d7 c33d
00000080: 906f 37bd f5b0 3abd 6f60 d53c 67cf 89bc
00000090: 7aaf 7fbc 61e8 023d ef8c 20bd 021d 503d
000000a0: 34a8 e4bd dbf0 1e3c 0bdb f4bc c0c3 003e
000000b0: 567a dcba 144c b4bd 59d4 d33c dec1 1fbd
000000c0: 8eab 83bd db34 723c cb95 2e3d 50ee cc3c
000000d0: 646b 7cbd 54ad 43bb 9771 46bb 927d 5c3d
000000e0: 763e 2cbd 6f86 1abd 4c5e cb3d 24cc 06bd
000000f0: e1a8 0dbd bb53 61bd 583d 80bd 825e 8e18
00000100: 66cb 0b3e 1ac2 a03c 05d6 393d 78ea 1b3e
00000110: 2c9c 863d cebf a93c bef4 193e 5162 d13d
00000120: 6232 8c3d 5b7f 963b 9e88 cebd 0870 f93d
00000130: 0b99 1fbb 79c2 e2bd 864f 703d 3b58 bfbd
00000140: e0f3 bdba c898 293d 102b 813d b2b0 6f3d
00000150: 332e af3d de71 9cbd 70a6 93bd 46a2 adbd
00000160: 48c9 1abe 0f03 be3c e7b5 cd3c 51e3 01bd
00000170: 7a87 903c 1ae3 4cbd b962 b7bd 6eb6 f33c
00000180: c777 523c c053 143c f1fe ddbd d5f2 b8bd
00000190: 4510 c4bb a0d2 993c bfc1 0fbd f158 22bb
000001a0: 8b53 e9bc 6617 fbbb f2a8 5f3d 44b5 8a9c
000001b0: 9709 e33c c7c2 04bd a2f6 bd3d 9e9b a1bd
000001c0: 4dc5 5bbd b19f 653c 30e4 acbc eb36 0c3e
000001d0: 2539 343c e04c c23c d74d 813d 88f8 9cbc
000001e0: f16c 40bd c387 bd3d 2637 b3bd a088 d13d
000001f0: ebfe 013e 8d03 debc 090f 33bd b83a 84bd
00000200: 20b8 d43d f444 febc 55cd d73d 0b7a 2cbd
00000210: 60aa c13d 9529 7c3d c277 f8ba 25a0 67bc
00000220: c4ed c23c 21e1 cd3d 8f1b 9abd 9d86 a33c
00000230: 6b20 d8bd b50d b2bd e288 853d dd6c 103e
00000240: 36b6 1e3d 2705 e23d 6d95 de3d 9130 5bbd
00000250: f1c7 9f3d 0f31 593d 874d eabc 47b2 583c
00000260: fc4f 323d 16a9 133d c909 24be b91b f5bd
00000270: c532 8fbd 71b7 a43d 8316 16bc 7c44 e5bc
00000280: 5e8b c33d e817 133d 54ff 9dbd b96e e03d
00000290: bdaa 03bd c9a5 563d f995 d93d 73a8 d8bd
000002a0: b8c1 6dbd af11 81bd 0824 619f a1a4 25bd
000002b0: cb2d 8b3d 5d59 aebd aff7 a3bd 74f7 323b
000002c0: 920f 70bd cf94 5ebc dbbe aa3d 6c1c 063e
000002d0: 20ab 1ebd 6051 3a3d c01c 7d3d f78d a33d
000002e0: a97b ebbc 02d8 09be 9439 963d f619 a3bd
000002f0: fd9b 8ebd 2fd3 99bb d3a8 17bd e647 f93c
00000300: 4e40 dbbd dfe3 743d 81d0 bbbd 8f6b 0abd
00000310: 3b8d f13b 67ce bcbd 2ccf 2dbe 70d0 cebd
00000320: 96ed 783d cd3c c0bd 3c22 e0bd 3659 3b3d
00000330: 7cc3 143d 8a19 963d 9311 9a3d 493c 79bd
00000340: 1c9a 433d 7786 7b3d 073d 033c 06e2 503c
00000350: 4632 dd3d f416 3f3b cbd6 f53d 47c2 c3bd
00000360: b7bf 0bbe f62c d1bc 7f4d af3d a471 033d
00000370: a2c4 c33d d93c e63d 2476 0e3c b1c6 a43c
00000380: 7081 b33d 1e43 ec3a b0de 44bd f24c e03d
00000390: 2b24 1e3c 640b 6fbc e79f 26bc b4d4 3ebd
000003a0: c36b c2bc 1b83 f5bc e0c4 d53c eb5d d83d
000003b0: 9948 4f3d 7e76 a3bd 6746 a93d f66b 9bbc
000003c0: 3649 10be 7151 c9bd 473b febc c330 7d93
000003d0: 73c7 cb3d 16da 9c3d a295 453d 05c9 ee3d
000003e0: 6b0f 4d3e fc29 16be 22bb 4c3d 45cf 953d
000003f0: 07cd f73b c4ce 033e 62d1 05bc b321 c6bc

weight_hh_l0 f4 [240, 80]
-0.039577212 -0.00078783854 0.017941687 -0.08958919 0.0599976 0.024768235 0.08620188 0.054517906
-0.09223555 0.0030408727 -0.11148444 0.037682932 -0.044221573 -0.14023358 0.05364379 0.07788415
0.01969125 -0.04059787 -0.072551385 0.11480895 0.020755824 -0.027217366 -0.11225827 -0.1356711
-0.004511219 -0.048071787 -0.113788724 0.13789518 -0.06495968 -0.0043378756 0.14250405 -0.091854654
0.03699404 0.074505836 -0.13407244 -0.021566845 0.09237322 -0.18309774 -0.004732288 0.0049844654
0.10586984 -0.038176138 0.091226436 -0.063508615 -0.017514441 -0.006699132 -0.12483598 0.03874961
-0.022104448 -0.020764753 -0.019391553 0.042892944 -0.028170783 -0.06545354 0.091336995 0.050477676
-0.0062974575 -0.048255496 0.11788124 0.03216707 -0.019680861 0.04431048 0.09451446 0.08537704
0.101690345 -0.024072444 0.12826122 -0.011557338 -0.095941216 0.050874203 0.08356613 -0.12610649
0.11725688 0.039649863 0.12504794 0.050432935 0.074092664 0.050763216 -0.016434914 0.12480282
0.0014499784 -0.0814291 0.08698515 -0.037740536 -0.029188335 0.014809194 -0.04489455 0.14202559
-0.058723688 0.125581 0.027910471 0.15563777 0.15126725 0.04810808 0.0028667354 -0.072079174
-0.00085196807 0.002593857 -0.029778136 -0.03664928 -0.022131382 0.01689814 0.07854738 -0.044990554
-0.08359983 0.044489644 0.101672664 -0.16898681 0.0934335 -0.023091616 -0.05828051 -0.08595647
-0.037090614 0.03065658 0.0076984414 0.00041044666 0.087109335 0.024650285 0.1124205 0.050257564
0.028141085 0.102124654 0.046693347 0.105291165 0.062866926 0.07167777 0.09006281 0.015454073
-0.026472557 -0.06392236 0.0016781542 -0.03946081 0.033481263 0.0056170844 -0.02611583 -0.0125002265
-0.04133588 0.007022507 0.058063865 0.003806253 -0.10989118 0.067682974 -0.0022134604 -0.07654831
-0.030185185 -0.10625234 0.005165854 0.012124593 -0.09392788 -0.0295352 0.007269462 -0.10306295
-0.0910769 0.0005008457 -0.13997038 -0.13898121 -0.018833349 -0.095908135 -0.028688073 0.027578061
0.08464168 0.14832638 -0.052945565 0.08656036 0.07258803 0.09313031 -0.01463167 0.090612866
-0.026579412 -0.13072383 -0.082026914 0.046807658 0.095651574 0.016474577 0.10000208 -0.14546207
0.0052428 0.060467597 -0.058152992 -0.064757645 -0.057409797 0.05575561 -0.11168353 -0.047934584
0.04758786 -0.027318003 0.0035313305 -0.12612602 -0.010911635 0.1108118 0.03939553 0.037342187
0.06410564 -0.09565778 -0.043726448 -0.058415618 -0.014677002 -0.09158965 -0.049855333 0.09640829
0.072283484 0.034260605 -0.08562063 -0.07522304 -0.064293444 0.081699364 -0.036973618 -0.06856247
0.09116064 0.05689961 -0.0035726489 0.095714845 0.03169043 -0.12455121 0.10901591 -0.08102536
-0.05815313 0.07537857 0.026451796 0.080173366 -0.02425037 0.027018601 -0.023553876 -0.12678994
-0.01394001 0.110281706 0.018878343 0.102448426 -0.021921352 0.102215104 -0.026377948 0.116938345
0.050360195 0.04439558 -0.02480299 0.0031606199 0.037793715 -0.039464373 -0.10872465 -0.02027715
-0.06756577 -0.013856149 -0.06333277 -0.042205375 0.050106995 0.10958638 0.07522611 0.1520472
-0.06425732 0.083216935 0.09995228 -0.13951837 -0.17669053 0.056938343 -0.09169911 -0.04838316
00000000: b71b 22bd f386 4eba 72fa 923c 8a7a b7bd
00000010: 0bc0 753d c1e6 ca3c 9c8a b03d 2b4e 5f3d
00000020: fee5 bcbd 6149 473b f451 e4bd 6b59 1a3d
00000030: ae21 35bd 6499 0fbe 97b9 5b3d ba81 9f3d
00000040: 8b4f a13c f449 26bd d295 94bd f420 eb3d
00000050: 1e08 aa3c f4f6 debc aae7 e5bd 5ded 0abe
00000060: d9d2 93bb ece6 44bd 100a e9bd 6534 0d3e
00000070: 9509 85bd bd24 8ebb 95ec 113e 4b1e bcbd
00000080: 1087 173d 8496 983d 494a 09be f4ac b0bc
00000090: 2c2e bd3d f97d 3bbe 4f11 9bbb ba54 a33b
000000a0: 49d2 d83d 955e 1cbd edd4 ba3d ce10 82bd
000000b0: 727a 8fbc 6484 dbbb 02aa ffbd e9b7 1e3d
000000c0: 6314 b5bc d81a aabc 09db 9ebc 83b0 2f3d
000000d0: 6ac6 e6bc 810c 86bd e40e bb3d aec1 4e3d
000000e0: e75a cebb 8ea7 45bd b86b f13d 9ec1 033d
000000f0: c239 a1bc e87e 353d cc90 c13d 28da ae3d
00000100: 0743 d03d 9333 c5bc e956 033e fd5a 3dbc
00000110: d47c c4bd 7861 503d b824 ab3d 0f22 01be
00000120: 6024 f03d e567 223d 910c 003e c492 4e3d
00000130: e5bd 973d 17ed 4f3d 83a2 86bc 9f98 ff3d
00000140: 340d be3a 4dc4 a6bd 4525 b23d d295 1abd
00000150: 601c efbc 43a2 723c 59e3 37bd 286f 113e
00000160: 4088 70bd 4e98 003e 80a4 e43c 825f 1f3e
00000170: cde5 1a3e fa0c 453d d7df 3b3b 3f9e 93bd
00000180: 9c56 5fba b3fd 293b 47f1 f3bc 8e1d 16bd
00000190: df4c b5bc f86d 8a3c 73dd a03d 0448 38bd
000001a0: 6336 abbd c63a 363d c239 d03d e10a 2dbe
000001b0: 105a bf3d a12a bdbc 8bb7 6ebd f209 b0bd
000001c0: 54ec 17bd 8223 fb3c 3543 fc3b 3831 d739
000001d0: 6166 b23d 65ef c93c b83c e63d e0da 4d3d
000001e0: 2288 e63c bb26 d13d 8641 3f3d e5a2 d73d
000001f0: 60c0 803d cbcb 923d da72 b83d 1533 7d3c
00000200: fadc d8bc bae9 82bd 83f5 db3a a9a1 21bd
00000210: a623 093d 850f b83b ddf0 d5bc c0cd 4cbc
00000220: d04f 29bd 0f1d e63b 60d4 6d3d 5472 793b
00000230: a10e e1bd 5f9d 8a3d b40f 11bb 5cc5 9cbd
00000240: ec46 f7bc d49a d9bd 5346 a93b 3ba6 463c
00000250: 435d c0bd cef3 f1bc ab34 ee3b ab12 d3bd
00000260: 8786 babd 304b 033a 6554 0fbe 1751 0ebe
00000270: 6548 9abc 7c6b c4bd 4003 ebbc 63eb e13c
00000280: 9e58 ad3d dfe2 173e 73dd 58bd 8f46 b13d
00000290: 08a9 943d 1bbb be3d acb9 6fbc 3d93 b93d
000002a0: 11bd d9bc 78dc 05be bafd a7bd 63b9 3f3d
000002b0: f9e4 c33d b1f5 863c e4cd cc3d 02f4 14be
000002c0: cbcb ab3b dfac 773d d531 6ebd a89f 84bd
000002d0: 8926 6bbd ff5f 643d 56ba e4bd 0e57 44bd
000002e0: 7deb 423d 01ca dfbc e56d 673b 2e27 01be
000002f0: b7c6 32bc 4cf1 e23d 355d 213d 1ff4 183d
00000300: d149 833d 3ae8 c3bd 811a 33bd 3745 6fbd
00000310: cf77 70bc 5b93 bbbd 1b35 4cbd b671 c53d
00000320: 5d09 943d d954 0c3d de59 afbd 8a0e 9abd
00000330: 48ac 83bd ff51 a73d a671 17bd 7b6a 8cbd
00000340: 6eb2 ba3d 910f 693d 1a23 6abb 2506 c43d
00000350: d3cd 013d b414 ffbd bc43 df3d a0f0 a5bd
00000360: fa31 6ebd 1460 9a3d 70b1 d83c ef31 a43d
00000370: b6a8 c6bc 1d56 dd3c 0ff4 c0bc 39d5 01be
00000380: a464 64bc 60db e13d c1a6 9a3c 7bd0 d13d
00000390: 6894 b3bc 2756 d13d 9116 d8bc 5f7d ef3d
000003a0: 7e46 4e3d 24d8 353d a42f cbbc 6722 4f3b
000003b0: 95cd 1a3d 65a5 21bd 08ab debd 441c a6bc
000003c0: ec5f 8abd e704 63bc 9cb4 81bd 8bdf 2cbd
000003d0: fe3c 4d3d d36e e03d 2610 9a3d 43b2 1b3e
000003e0: 5799 83bd a46d aa3d c8b3 cc3d e7dd 0ebe
000003f0: 5dee 34be 2e38 693d becc bbbd 6c2d 46bd

bias_ih_l0 f4 [240]
-0.102745466 -0.039733592 0.08538767 -0.06700909 0.039127633 -0.06549007 -0.0676802 0.05674805
0.16460405 0.044726554 0.0629533 -0.08280631 -0.055716544 0.026064998 0.025571778 0.07078246
0.04181049 0.06537247 0.04365108 -0.062818594 0.111386895 0.02972986 -0.021606 0.11871229
-0.05431562 0.007115051 -0.07423487 0.0982941 -0.101880796 -0.08030575 -0.10414665 0.026905352
0.07153363 0.0912746 0.08445135 -0.0590045 0.07489626 0.10873054 0.0683981 0.10480803
-0.05941893 0.0168593 -0.050341465 -0.030620912 0.111593924 0.091223046 -0.09483079 0.10861739
-0.01636216 -0.011523585 0.047515742 0.040991288 -0.027239302 0.037301656 0.12620142 -0.0029074955
-0.054257195 0.11647818 -0.09107705 0.095606625 0.046660155 -0.03590701 -0.060204465 0.03493316
0.12923007 0.017977607 0.049078636 -0.06305394 0.10518314 -0.07617887 -0.0889052 0.05197456
-0.038967863 0.08139533 0.1397568 -0.046393685 0.10254644 -0.009433375 0.056445703 0.088685594
0.07896025 -0.08814947 0.07239483 -0.020585371 -0.03803741 -0.047036108 0.025746938 0.030456861
-0.041939113 -0.008258465 -0.009341942 -0.015228597 0.08283826 -0.04378025 0.0529085 -0.0706449
-0.067078896 -0.14288582 0.013681713 -0.009149208 0.09679654 0.06677437 0.019781837 0.079874106
0.048502963 -0.013100172 0.01868981 -0.019768877 -0.11793894 -0.005597728 -0.0004878289 -0.097860396
0.05194064 -0.112421125 -0.065475084 -0.102967694 -0.019184353 0.005223453 0.11256955 0.01647496
-0.089096785 0.070117876 0.097726986 0.046004646 -0.028710993 -0.072383545 0.0052299746 -0.08313943
0.07442152 0.0036861247 0.08777138 -0.09306508 -0.15435861 0.0322268 -0.10214353 -0.033950843
0.059868056 -0.07948759 0.049091395 -0.014018334 0.015859857 -0.0820181 -0.020271994 -0.08524135
0.046620015 0.093130246 0.04646766 -0.019330798 -0.10131939 -0.022913946 0.048568476 0.0069945604
-0.08168877 -0.10286078 -0.0021947697 0.089448676 -0.07798198 0.036540322 0.005234214 -0.16244443
-0.042414263 0.08573165 -0.0017830238 0.046226244 0.0035769532 -0.043777406 0.089612596 -0.09045396
-0.058624286 0.06537205 0.05236064 0.016307816 0.0060849115 0.10090946 0.069323875 0.05214421
0.11239383 -0.10012922 0.07972353 0.061333746 -0.007859236 0.072181895 -0.100900605 -0.03530467
-0.027505308 0.022292266 -0.03047717 -0.050257657 -0.030117556 -0.023971608 -0.10121232 -0.05043601
-0.07924456 0.09643884 0.07826393 -0.044946697 -0.008142819 0.097850226 -0.10326806 0.07214259
0.046301827 -0.081139006 -0.095189385 -0.06262328 0.055877786 -0.025778987 -0.10568261 0.0588948
-0.028050518 0.096168555 0.027052974 0.11102464 0.064125456 0.06764592 0.0733355 0.09785609
-0.084798425 -0.075213656 -0.05717227 -0.00025739204 0.08437841 -0.037094787 -0.10121381 0.011226293
0.052561957 -0.009746665 -0.11792126 0.052335422 -0.05566082 0.1001261 0.0996545 -0.09518761
0.014016401 0.043496113 -0.025964472 -0.11071404 -0.08533856 -0.09997868 0.0507117 0.0477921
00000000: 376c d2bd b1bf 22bd bbdf ae3d 103c 89bd
00000010: 4c44 203d a81f 86bd eb9b 8abd a570 683d
00000020: f78d 283e 3133 373d a9ed 803d 5b96 a9bd
00000030: 0837 64bd 4386 d53c e87b d13c 65f6 903d
00000040: 7a41 2b3d 00e2 853d 7acb 323d 09a7 80bd
00000050: d01e e43d 098c f33c 11ff b0bc 6e1f f33d
00000060: 0e7a 5ebd 6025 e93b 7408 98bd 6b4e c93d
00000070: e1a6 d0bd 5777 a4bd d74a d5bd 9d68 dc3c
00000080: 3980 923d 2dee ba3d d4f4 ac3d b4ae 71bd
00000090: 3663 993d 1eae de3d 4e14 8c3d 98a5 d63d
000000a0: 4461 73bd 841c 8a3c da32 4ebd b5d8 fabc
000000b0: 5b8b e43d 26d3 ba3d a536 c2bd cb72 de3d
000000c0: f009 86bc 6bcd 3cbc de9f 423d 7be6 273d
000000d0: f524 dfbc 9fc9 183d f23a 013e ae8b 3ebb
000000e0: cb3c 5ebd 1d8c ee3d 9b86 babd 68cd c33d
000000f0: b81e 3f3d 3b13 13bd f598 76bd 1316 0f3d
00000100: e354 043e c645 933c ae06 493d 6d22 81bd
00000110: 426a d73d ab03 9cbd ee13 b6bd 47e3 543d
00000120: c49c 1fbd 98b2 a63d 681c 0f3e 4e07 3ebd
00000130: de03 d23d 718e 1abc 9c33 673d cba0 b53d
00000140: e9b5 a13d b687 b4bd be43 943d a7a2 a8bc
00000150: 1dcd 1bbd efa8 40bd 3eeb d23c ab80 f93c
00000160: 59c8 2bbd 834e 07bc f20e 19bc 5e81 79bc
00000170: 1ba7 a93d eb52 33bd 95b6 583d 46ae 90bd
00000180: a960 89bd a950 12be 4329 603c 8fe6 15bc
00000190: 443d c63d 00c1 883d 850d a23c 0995 a33d
000001a0: 0bab 463d 1ba2 56bc 5f1b 993c 57f2 a1bc
000001b0: f989 f1bd 256d b7bb 49c3 ffb9 086b c8bd
000001c0: b5bf 543d 0c3d e6bd cd17 86bd bae0 d2bd
000001d0: 8128 9dbc 8029 ab3b dd8a e63d 7ff6 863c
000001e0: 6078 b6bd f699 8f3d 1625 c83d 5e6f 3c3d
000001f0: 5133 ebbc d33d 94bd 3560 ab3b 0145 aabd
00000200: 4f6a 983d e992 713b 7bc1 b33d e898 bebd
00000210: 2f10 1ebe 4000 043d a130 d1bd 0a10 0bbd
00000220: 3538 753d 64ca a2bd 0f14 493d 28ad 65bc
00000230: 88ec 813c 1bf9 a7bd 7411 a6bc 0493 aebd
00000240: a1f4 3e3d 12bb be3d e054 3e3d 9f5b 9ebc
00000250: 8a80 cfbd 07b6 bbbc bdef 463d a032 e53b
00000260: 714c a7bd aca8 d2bd 20d6 0fbb de30 b73d
00000270: 04b5 9fbd 4eab 153d c583 ab3b d557 26be
00000280: 94ba 2dbd 1394 af3d 5ab4 e9ba bb57 3d3d
00000290: 516b 6a3b f04f 33bd cf86 b73d ed3f b9bd
000002a0: 0520 70bd c8e1 853d 1c78 563d f897 853c
000002b0: f063 c73b 9ea9 ce3d adf9 8d3d 2b95 553d
000002c0: bd2e e63d 8c10 cdbd 1746 a33d 1839 7b3d
000002d0: 06c4 00bc 1ad4 933d faa4 cebd a19b 10bd
000002e0: d052 e1bc 459e b63c 42ab f9bc f9da 4dbd
000002f0: 18b9 f6bc 1b60 c4bc 6848 cfbd fd95 4ebd
00000300: f94a a2bd ba81 c53d d748 a03d 071a 38bd
00000310: 7569 05bc b365 c83d 347e d3bd 7fbf 933d
00000320: fca6 3d3d 352c a6bd a7f2 c2bd a240 80bd
00000330: 1be0 643d 742e d3bc 2070 d8bd ac3b 713d
00000340: 33ca e5bc 05f4 c43d 339e dd3c e360 e33d
00000350: 3554 833d f289 8a3d ec30 963d c668 c83d
00000360: ccaa adbd 9e09 9abd 782d 6abd 93f2 86b9
00000370: 96ce ac3d b4f0 17bd 3049 cfbd 7cee 373c
00000380: 354b 573d 7ab0 1fbc b480 f1bd ab5d 563d
00000390: 9afc 63bd ea0e cd3d a917 cc3d b9f1 c2bd
000003a0: 0ca5 653c fb28 323d 72b3 d4bc 0bbe e2bd
000003b0: fcc5 aebd 9fc1 ccbd 12b7 4f3d a6c1 433d

bias_hh_l0 f4 [240]
-0.037873246 0.07866061 0.08731505 0.081449844 0.061853975 -0.014669251 -0.015800364 -0.07258578
0.0722867 0.055043116 -0.07038153 0.025100313 0.01571127 -0.041532837 0.012761689 0.066053025
0.031977344 -0.073569715 0.051834717 0.010767353 0.023992512 -0.011647503 -0.06721323 0.11993197
0.009703332 0.12778294 0.018905032 0.0033659223 -0.100723386 -0.024715845 -0.020451253 -0.026613135
0.041543398 0.016924037 0.06283281 0.036370154 0.06990685 0.051324785 0.059847184 0.110237986
0.072686195 -0.018514967 -0.030303549 0.045746636 -0.0598899 0.02490456 -0.03398149 -0.042470023
0.11324708 -0.081269346 0.057232928 0.044399112 -0.04630119 0.11344343 -0.004248763 -0.07109343
0.0026066285 -0.011646687 -0.041326083 0.014509352 0.05239152 -0.009493237 0.097198784 -0.030737406
0.085886136 -0.018367905 -0.088985234 -0.05590416 -0.034627028 0.121937685 0.06524895 0.15937127
-0.0015989869 0.102862634 -0.041052993 -0.024350792 0.080000356 -0.010150494 -0.03813229 0.10741247
0.04418345 0.03161062 -0.030623073 0.038132537 0.084271036 0.05204237 0.04888396 -0.012980944
-0.0072612357 -0.0070079667 -0.10327627 -0.027833104 -0.013769345 -0.02862386 -0.108551495 -0.03324846
-0.07191209 0.04920744 0.053923283 0.004880697 -0.102944575 0.090972215 0.020738835 0.061319392
0.023627153 -0.10002368 -0.016060757 -0.008700491 0.06494432 -0.036886632 -0.11222422 -0.04255783
-0.0030457012 -0.12844643 -0.06890882 0.02560102 0.049874566 -0.020508736 -0.03767858 0.026845388
-0.04065415 -0.017563883 0.084937416 -0.08835735 -0.028518254 -0.06363232 -0.080128975 0.087680325
-0.08583645 -0.066616096 -0.09480359 -0.083112866 -0.04596734 -0.025620554 -0.061956227 -0.018666342
-0.06902948 0.01069448 -0.045636 -0.12410118 -0.08825154 -0.085453086 -0.065330036 0.04517567
-0.059920784 -0.09964611 0.021023512 -0.018954085 -0.021458566 -0.022325847 -0.13454169 0.119259566
0.0458458 -0.10234405 -0.05265467 -0.070546605 -0.09757051 0.029562004 0.0047155907 -0.20078899
0.044121753 0.018315906 0.016266963 0.08892498 0.017911736 0.036376335 -0.033034492 -0.020145161
0.036838453 0.024628075 -0.086810775 0.07895164 0.04006457 -0.07095935 0.09463337 -0.088143155
-0.038870305 -0.09271319 0.013158083 0.0131366635 0.0629749 0.057880014 -0.04769563 -0.054843552
0.11454268 -0.07249287 -0.051215865 0.027842645 0.0015105307 0.005569731 0.07611673 -0.05479386
-0.07212897 -0.08639406 0.031473693 -0.009063931 -0.07818352 0.0056715906 -0.022599364 -0.08578337
-0.053635344 -0.02479299 -0.0023440362 0.015058887 -0.061555445 0.07489947 0.06676585 0.07334619
-0.020405516 0.04576577 -0.025103398 0.054664176 0.09126894 -0.10273785 0.053398117 0.09591359
-0.0118094 0.10390864 0.08569514 0.016481536 0.056581005 0.04138112 0.08249953 0.11458556
-0.0018012369 0.062024176 -0.054036427 -0.05348889 -0.08752678 0.05615894 -0.050237343 0.02913123
0.06880501 0.040813584 0.10149625 0.091556236 -0.061249357 0.06549586 0.10871666 0.010895255
00000000: fa20 1bbd d018 a13d 3cd2 b23d 2dcf a63d
00000010: 985a 7d3d 4c57 70bc c46f 81bc daa7 94bd
00000020: 0d0b 943d e474 613d 3124 90bd 2c9f cd3c
00000030: ecb4 803c 561e 2abd 6716 513c cf46 873d
00000040: adfa 023d b8ab 96bd a450 543d 8d69 303c
00000050: f28b c43c 2bd5 3ebc 17a7 89bd e59e f53d
00000060: b9fa 1e3c 88d9 023e bade 9a3c ce96 5c3b
00000070: 1048 cebd e278 cabc 6389 a7bc ca03 dabc
00000080: 6929 2a3d 47a4 8a3c 7dae 803d dff8 143d
00000090: 532b 8f3d f039 523d 5222 753d 74c4 e13d
000000a0: 80dc 943d b3ac 97bc 263f f8bc d360 3b3d
000000b0: 1d4f 75bd a604 cc3c 2d30 0bbd 0cf5 2dbd
000000c0: 16ee e73d 8b70 a6bd 136d 6a3d d8db 353d
000000d0: 51a6 3dbd 0755 e83d 3539 8bbb 6f99 91bd
000000e0: f8d3 2a3b bfd1 3ebc 8a45 29bd a2b8 6d3c
000000f0: 7e98 563d 8689 1bbc 2810 c73d 03cd fbbc
00000100: 12e5 af3d 4a78 96bc e43d b6bd c3fb 64bd
00000110: 12d5 0dbd 77ba f93d 3ea1 853d 3932 233e
00000120: 1995 d1ba a5a9 d23d 2f27 28bd 507b c7bc
00000130: 3ad7 a33d 424e 26bc 9b30 1cbd 12fb db3d
00000140: b5f9 343d 237a 013d 3ddd fabc dd30 1c3d
00000150: 4b96 ac3d 612a 553d 8c3a 483d 06ae 54bc
00000160: a9ef edbb 16a3 e5bb 8282 d3bd 4002 e4bc
00000170: d298 61bc 967c eabc 3f50 debd 8a2f 08bd
00000180: a546 93bd be8d 493d a9de 5c3d 41ee 9f3b
00000190: 9bd4 d2bd a44f ba3d 7de4 a93c 0b2a 7b3d
000001a0: bb8d c13c 37d9 ccbd d991 83bc 818c 0ebc
000001b0: 8701 853d 7016 17bd d0d5 e5bd 1f51 2ebd
000001c0: 639a 47bb 7687 03be 1120 8dbd 3bb9 d13c
000001d0: 4649 4c3d f001 a8bc db54 1abd dcea db3c
000001e0: f784 26bd 22e2 8fbc abf3 ad3d b3f4 b4bd
000001f0: 1d9f e9bc a951 82bd a91a a4bd be91 b33d
00000200: 05cb afbd 056e 88bd 6228 c2bd 1437 aabd
00000210: 4048 3cbd 32e2 d1bc d0c5 7dbd 28ea 98bc
00000220: 545f 8dbd e637 2f3c d0ec 3abd c228 febd
00000230: 39bd b4bd 0702 afbd c1cb 85bd 200a 393d
00000240: 7f6f 75bd 4213 ccbd 8039 ac3c 9945 9bbc
00000250: e0c9 afbc b2e4 b6bc 4cc5 09be 5c3e f43d
00000260: cec8 3b3d c299 d1bd 6cac 57bd bd7a 90bd
00000270: 0cd3 c7bd 042c f23c 3e85 9a3b a19b 4dbe
00000280: 03b9 343d 3d0b 963c 4b42 853c 4d1e b63d
00000290: a2bb 923c 5aff 143d 2d4f 07bd 7707 a5bc
000002a0: ebe3 163d d1c0 c93c d9c9 b1bd 66b1 a13d
000002b0: bf1a 243d 2353 91bd 24cf c13d 6684 b4bd
000002c0: 7836 1fbd 6ae0 bdbd 0095 573c 293b 573c
000002d0: fcf8 803d 9813 6d3d 7e5c 43bd a2a3 60bd
000002e0: 5a95 ea3d 2477 94bd bac7 51bd 4216 e43c
000002f0: 00fd c53a 4a82 b63b 17e3 9b3d 876f 60bd
00000300: 5ab8 93bd 5eef b0bd 8fea 003d e280 14bc
00000310: ae1e a0bd c0d8 b93b 4d22 b9bc 31af afbd
00000320: bcb0 5bbd ab1a cbbc 679e 19bb 8db9 763c
00000330: 9021 7cbd e564 993d 89bc 883d 8736 963d
00000340: 7829 a7bc e374 3b3d a4a5 cdbc 8be7 5f3d
00000350: 36eb ba3d 3968 d2bd fcb7 5a3d 586e c43d
00000360: 377c 41bc 0ece d43d ef80 af3d 4904 873c
00000370: 7cc1 673d 407f 293d 83f5 a83d d6ab ea3d
00000380: 7b17 ecba 100d 7e3d 4d55 5dbd 2b17 5bbd
00000390: 3e41 b3bd eb06 663d acc5 4dbd 9ea4 ee3c
000003a0: a4e9 8c3d 252c 273d 44dd cf3d d681 bb3d
000003b0: 9be0 7abd b222 863d d7a6 de3d 0382 323c

weight f4 [40, 80]
-0.034558345 -0.05407054 0.07926372 -0.12079178 0.06493306 0.011383075 0.01733021 0.051785845
-0.019749021 -0.055664387 -0.0849524 -0.011367646 0.10327593 0.14219041 0.084434286 -0.03992404
-0.100795515 0.021505617 -0.016180387 0.063024946 0.07027648 0.022944963 0.025032822 -0.07783293
0.038761307 -0.06537633 -0.050325204 -0.012520552 -0.09031821 -0.09404272 0.12591748 0.0075437357
-0.035888035 0.01868153 -0.036104687 0.07439603 0.10792414 -0.10697867 -0.04324709 0.028333995
-0.010471677 0.109027505 -0.07841373 -0.11482891 0.014412445 -0.11601472 0.08634917 0.104620114
-0.10586998 -0.148772 0.15011166 -0.1406628 -0.041464575 -0.108852655 0.006373501 -0.12540682
0.028155873 -0.10651673 0.08696768 0.042973507 0.069090255 0.010734504 0.07459127 0.0371106
-0.004456474 -0.005208983 -0.07832165 -0.08760675 0.031365037 -0.07456921 -0.03767749 -0.11162998
-0.08368618 -0.079343826 0.089195125 -0.0321364 0.005081813 0.06081246 0.0226905 -0.06427723
0.021712106 -0.1164778 0.11602219 0.09761076 0.11647047 -0.059784822 -0.072771266 -0.014798987
-0.023738429 0.016214667 -0.09807291 -0.06987593 -0.069054075 -0.062412944 -0.04362827 -0.052891552
-0.043399908 -0.05736462 0.04256914 -0.045908157 -0.06147028 0.10956774 -0.0043553268 0.095911816
-0.058396656 -0.027574403 -0.034278728 0.05799276 -0.059863593 -0.06275937 -0.057811607 0.06579405
0.09748504 -0.026227346 0.0609472 -0.018962387 0.106581494 0.047152292 0.07924852 0.0040967683
-0.067474045 0.065722294 0.049471606 0.054953884 0.021754075 0.12534603 0.06957657 -0.07603326
0.071040995 0.05146713 -0.09758111 -0.086659044 0.0066229273 0.036795754 0.08155734 0.07036681
-0.004394116 0.018388184 0.039671693 -0.084347196 -0.029242342 -0.017274564 -0.1538899 0.08508065
0.09532618 0.0013903005 0.03202658 0.0581912 0.05605607 0.03065913 0.085245036 0.07241599
-0.0696409 0.11518368 -0.08571995 -0.07274696 0.08023296 0.07197576 0.04583222 0.06513023
0.077486284 -0.022709709 0.08265709 0.013781787 0.11587621 0.0846397 0.023233792 -0.06868103
0.07865158 -0.0807046 -0.042211834 -0.018838368 0.07914359 0.039466225 -0.046844337 0.030368164
-0.10687964 0.1050871 -0.03347008 0.0032219095 -0.06516056 -0.019394077 -0.1523043 -0.07674031
0.11036275 0.106471226 -0.011626518 0.03099375 0.066286616 -0.061795034 -0.10679733 -0.01637568
0.119372785 0.052496742 0.12951359 0.044152774 -0.0021049734 -0.038126968 0.08829184 0.11524014
-0.16357063 -0.12743554 0.00018417207 0.14462093 0.06558743 0.027938867 -0.09586592 0.056722485
-0.12438481 0.06405886 -0.034270164 -0.08489315 0.01578781 0.027888466 0.042306054 -0.04088683
0.06607746 0.11549119 0.09326408 0.07302152 0.0478608 0.02261126 -0.02064062 -0.040115103
0.01641421 0.12721296 -0.03721699 0.0003474755 0.027014956 -0.019972818 -0.020119293 -0.029542536
-0.054054216 0.06480374 0.020132368 0.041801166 0.08385533 -0.057061736 -0.073693305 -0.13749218
0.004601737 0.056698337 0.084737316 -0.01685756 -0.040012244 0.05572672 0.11185254 0.105067566
-0.089589186 -0.08670267 -0.013740175 -0.07175907 -0.026862793 -0.048995737 -0.008710641 0.023752576
00000000: 0d8d 0dbd 1279 5dbd 0455 a23d ae61 f7bd
00000010: a0fb 843d 1480 3a3c 16f8 8d3c 651d 543d
00000020: b3c8 a1bc 5700 64bd 86fb adbd 5d3f 3abc
00000030: 5582 d33d 5d9a 113e e2eb ac3d 6487 23bd
00000040: e16d cebd 8c2c b03c bb8c 84bc 3913 813d
00000050: 1ded 8f3d 13f7 bb3c a211 cd3c df66 9fbd
00000060: 2dc4 1e3d 06e4 85bd cd21 4ebd 0023 4dbc
00000070: c1f8 b8bd 7899 c0bd 83f0 003e 7131 f73b
00000080: 55ff 12bd 020a 993c 82e2 13bd f25c 983d
00000090: 5507 dd3d a217 dbbd dc23 31bd b21c e83c
000000a0: 6691 2bbc d049 df3d 6197 a0bd 6b2b ebbd
000000b0: 2d22 6c3c 2099 edbd d5d7 b03d 1243 d63d
000000c0: 5cd2 d8bd b057 18be dfb6 193e e909 10be
000000d0: c2d6 29bd 24ee debd cdd8 d03b a56a 00be
000000e0: 25a7 e63c 7125 dabd 1c1c b23d fd04 303d
000000f0: 317f 8d3d c6df 2f3c 4fc3 983d 4901 183d
00000100: 9d07 92bb 1eb0 aabb 1a67 a0bd 2b6b b3bd
00000110: a078 003d beb7 98bd b653 1abd 429e e4bd
00000120: a963 abbd 047f a2bd efab b63d 75a1 03bd
00000130: 5685 a63b 7c16 793d 6de1 b93c c8a3 83bd
00000140: 96dd b13c ea8b eebd 0b9d ed3d 26e8 c73d
00000150: 1288 ee3d eee0 74bd 1a09 95bd 7377 72bc
00000160: 1877 c2bc 9fd4 843c 73da c8bd 1d1b 8fbd
00000170: 396c 8dbd b7a4 7fbd 8fb3 32bd d0a4 58bd
00000180: 1ac4 31bd 2af7 6abd fb5c 2e3d 310a 3cbd
00000190: 43c8 7bbd 0d65 e03d 21b7 8ebb 6a6d c43d
000001a0: 5531 6fbd b7e3 e1bc da67 0cbd d189 6d3d
000001b0: 8733 75bd fc87 80bd ddcb 6cbd 08bf 863d
000001c0: 3da6 c73d bbda d6bc c5a3 793d 0257 9bbc
000001d0: 6647 da3d c322 413d 0c4d a23d 2f3e 863b
000001e0: d52f 8abd 6999 863d bda2 4a3d 5317 613d
000001f0: 9a35 b23c b65a 003e 297e 8e3d 53b7 9bbd
00000200: f17d 913d 33cf 523d 9bd8 c7bd 4c7a b1bd
00000210: 2405 d93b 25b7 163d 8907 a73d 791c 903d
00000220: 84fc 8fbb d1a2 963c c97e 223d 39be acbd
00000230: a38d efbc 6383 8dbc 5095 1dbe c43e ae3d
00000240: 5f3a c33d be3a b63a 4e2e 033d e559 6e3d
00000250: 0d9b 653d db28 fb3c f394 ae3d d64e 943d
00000260: e39f 8ebd 6ce5 eb3d f18d afbd 5cfc 94bd
00000270: 2e51 a43d 0768 933d 91ba 3b3d ff62 853d
00000280: 21b1 9e3d b609 babc 1f48 a93d 01cd 613c
00000290: 8250 ed3d 9457 ad3d cb54 be3c a4a8 8cbd
000002a0: 1414 a13d 7448 a5bd 51e6 2cbd ec52 9abc
000002b0: 0916 a23d 56a7 213d d9df 3fbd a8c6 f83c
000002c0: b6e3 dabd e837 d73d ec17 09bd ac26 533b
000002d0: e672 85bd 54e0 9ebc a9f5 1bbe 062a 9dbd
000002e0: de05 e23d 960d da3d 277d 3ebc 9be6 fd3c
000002f0: 47c1 873d ca1c 7dbd 8fb8 dabd 4a26 86bc
00000300: b879 f43d d306 573d 369f 043e 8ad9 343d
00000310: 98f3 09bb 062b 1cbd 5ad2 b43d 0603 ec3d
00000320: 0f7f 27be 767e 02be 501e 4139 8217 143e
00000330: b452 863d 0de0 e43c 5a55 c4bd d655 683d
00000340: 77bd febd 4b31 833d df5e 0cbd 76dc adbd
00000350: 7055 813c 5a76 e43c 1d49 2d3d f378 27bd
00000360: 9f53 873d a586 ec3d 3d01 bf3d 4f8c 953d
00000370: b009 443d 403b b93c 8416 a9bc bc4f 24bd
00000380: 1877 863c 1d44 023e d870 18bd 5f2d b639
00000390: 784e dd3c 099e a3bc 37d1 a4bc 3003 f2bc
000003a0: f467 5dbd d3b7 843d a3ec a43c b337 2b3d
000003b0: 58bc ab3d 91b9 69bd 84ec 96bd c0ca 0cbe
000003c0: 2bca 963b 843c 683d c28a ad3d de18 8abc
000003d0: e1e3 23bd b341 643d f212 e53d aa2d d73d
000003e0: 897a b7bd 2b91 b1bd 791e 61bc 6bf6 92bd
000003f0: 5c0f dcbc c1af 48bd 14b7 0ebc c394 c23c

bias f4 [40]
0.08217189 -0.015471152 -0.071553275 -0.07295488 0.021970795 -0.10408214 0.035116915 0.008264887
0.051563494 0.061760385 -0.12172437 -0.021131612 -0.0750258 0.038337328 0.059458397 0.055476822
0.0503304 -0.05724401 -0.09313493 0.02329719 -0.13717102 -0.042730164 -0.04759724 -0.05142061
-0.07350008 0.061280575 0.058458656 0.0001055264 0.05525311 -0.024512036 0.009593801 0.0702554
-0.052292377 -0.052713454 0.08358088 -0.10932415 0.047534484 -0.14733903 -0.041478705 0.054508965
00000000: bc49 a83d b77a 7dbc 868a 92bd 5e69 95bd
00000010: 19fc b33c 0429 d5bd c1d6 0f3d 7369 073c
00000020: 3e34 533d 75f8 7c3d a04a f9bd 341c adbc
00000030: 20a7 99bd 9a07 1d3d a68a 733d aa3b 633d
00000040: 4027 4e3d b278 6abd 87bd bebd c0d9 be3c
00000050: 8f76 0cbe d305 2fbd 53f5 42bd 6b9e 52bd
00000060: 3687 96bd 5701 7b3d 5872 6f3d 0e4e dd38
00000070: 1651 623d 77cd c8bc 512f 1d3c 10e2 8f3d
00000080: 8830 56bd 10ea 57bd 742c ab3d 57e5 dfbd
00000090: 85b3 423d 0be0 16be 93e5 29bd cb44 5f3d

weight f4 [4, 40]
0.055542145 -0.061987627 -0.12338073 0.13925913 -0.005773029 -0.031680074 0.073823035 -0.063310705
-0.1550959 0.12499359 -0.052381687 0.02746317 0.08370903 0.04282834 0.10291669 -0.08005717
0.1412011 -0.053013835 -0.019263564 0.08954683 0.0345609 -0.08116899 0.12095145 0.14213447
0.09034928 0.069339015 -0.12368397 0.16618559 0.0065349084 0.08111129 0.08501769 -0.11680918
0.084446184 -0.10982415 0.013040744 0.063467614 -0.06570718 -0.05806882 0.13151771 -0.029063713
0.18623336 0.15040582 -0.026163075 0.04314267 0.13543215 0.008798796 -0.027856296 -0.048274867
0.055318277 0.062471326 0.1981808 0.16474923 0.08476167 0.0016520235 0.10521542 0.18059692
0.072612494 0.001040969 0.18007898 -0.12661038 -0.0052293814 -0.005249658 -0.07575433 0.038873833
0.04531505 -0.10714316 0.07646055 -0.12375783 0.036293466 0.04965671 0.0093959905 -0.10258171
0.057194937 0.056962743 0.028957138 -0.030071165 0.107644394 0.15250084 0.12065237 -0.0043845344
0.0076884604 -0.1436947 -0.047280572 0.02885924 0.11377693 0.0037919094 -0.14257637 -0.006558656
-0.13436773 -0.08372761 0.026766509 -0.11625551 0.14958791 0.009761973 -0.0058873273 0.1749621
0.07532788 0.20516443 -0.17147686 0.17486438 0.039861843 0.13301429 0.05684892 0.074625194
0.017640367 0.07179645 -0.0047058244 0.036763687 0.043912932 0.18616672 0.13005935 0.041727565
0.053681284 0.14607291 0.020548722 -0.038570292 0.1609359 -0.12324796 0.11964858 0.18310566
-0.050537303 -0.112520866 0.107399166 -0.11336998 0.083046526 0.020715034 0.07582447 0.17623892
-0.08440083 0.15672311 0.028555071 -0.03261948 0.06414087 -0.0894619 -0.09717496 0.12353132
-0.12482831 -0.086471364 0.09342817 -0.07557217 0.09472729 -0.042420965 -0.046240978 0.05287384
0.056152076 -0.16770741 0.22429691 -0.09702901 0.02345672 -0.023396928 -0.10519771 0.25816777
0.13418324 -0.2053363 -0.16471615 -0.046521932 -0.15666686 0.15253136 0.10939346 0.030708632
00000000: 2980 633d bde6 7dbd 09af fcbd f299 0e3e
00000010: ad2b bdbb f7c2 01bd 8830 973d 0ba9 81bd
00000020: 76d1 1ebe a4fc ff3d 2e8e 56bd 71fa e03c
00000030: a46f ab3d c56c 2f3d fcc5 d23d 03f5 a3bd
00000040: 0597 103e 0925 59bd 9fce 9dbc 5464 b73d
00000050: bb8f 0d3d ed3b a6bd 65b5 f73d b38b 113e
00000060: 0b09 b93d 9d01 8e3d 054e fdbd 8e2c 2a3e
00000070: c922 d63b ad1d a63d c11d ae3d a739 efbd
00000080: 1ff2 ac3d 7ceb e0bd d8a8 553c 4ffb 813d
00000090: 7c91 86bd 92d9 6dbd 94ac 063e 0617 eebc
000000a0: f5b3 3e3e fc03 1a3e f253 d6bc 5eb6 303d
000000b0: baae 0a3e d328 103c e332 e4bc debb 45bd
000000c0: 6b95 623d efe1 7f3d e8ef 4a3e 06b4 283e
000000d0: 8797 ad3d b688 d83a 2f7b d73d 66ee 383e
000000e0: dcb5 943d 2071 883a a066 383e 27a6 01be
000000f0: 3b5b abbb 5305 acbb 1625 9bbd 2b3a 1f3d
00000100: 469c 393d e06d dbbd 5997 9c3d bf74 fdbd
00000110: 75a8 143d d664 4b3d a4f1 193c 5c16 d2bd
00000120: 3d45 6a3d c451 693d 8537 ed3c ce57 f6bc
00000130: aa74 dc3d 2e29 1c3e 9718 f73d 24ac 8fbb
00000140: 7bef fb3b b424 13be 46a9 41bd 366a ec3c
00000150: e103 e93d af81 783b 8aff 11be ffe9 d6bb
00000160: b297 09be 6279 abbd 7045 db3c 5e17 eebd
00000170: 932d 193e aff0 1f3c 7bea c0bb 4429 333e
00000180: 8145 9a3d a016 523e a197 2fbe a60f 333e
00000190: 2c46 233d e634 083e 6ada 683d 18d5 983d
000001a0: 8882 903c 040a 933d 5133 9abb 8595 163d
000001b0: 0cde 333d 7da2 3e3e 472e 053e 86ea 2a3d
000001c0: e8e0 5b3d 2394 153e cb55 a83c e2fb 1dbd
000001d0: 61cc 243e 6d69 fcbd 510a f53d 0d80 3b3e
000001e0: 3400 4fbd 5771 e6bd 18f4 db3d 852e e8bd
000001f0: 4c14 aa3d 93b2 a93c dc49 9b3d fa77 343e
00000200: 58da acbd 067c 203e 53ec e93c 019c 05bd
00000210: 4a5c 833d cd37 b7bd aa03 c7bd fdfd fc3d
00000220: fca5 ffbd e617 b1bd 4557 bf3d 95c5 9abd
00000230: 6200 c23d 9bc1 2dbd 2e67 3dbd 3d92 583d
00000240: b8ff 653d 7ebb 2bbe 17ae 653e 25b7 c6bd
00000250: 4f28 c03c eaaa bfbc e671 d7bd 912e 843e
00000260: 5567 093e ae43 52be 5aab 28be c88d 3ebd
00000270: 476d 20be 2e31 1c3e ae09 e03d ab90 fb3c

bias f4 [4]
-0.089611515 -0.12302048 0.04162807 -0.06634972
00000000: 3e86 b7bd 29f2 fbbd 3282 2a3d 5de2 87bd

F f4 [2, 2]
1.0 1.0 0.0 1.0
00000000: 0000 803f 0000 803f 0000 0000 0000 803f

H f4 [2, 2]
1.0 1.0 1.0 0.0
00000000: 0000 803f 0000 803f 0000 803f 0000 0000

Q f4 [2, 2]
10.0 0.0 0.0 10.0
00000000: 0000 2041 0000 0000 0000 0000 0000 2041

R f4 [2, 2]
10.0 0.0 0.0 10.0
00000000: 0000 2041 0000 0000 0000 0000 0000 2041
